models/3ddensenet_snv.pt (torch, 825128 bytes, 53 tensors)

features.conv0.weight f4 [256, 11, 3, 1, 1]
000000 7a af 6e 3e 80 81 88 3f 63 95 22 be 51 bc 04 bf
       0.23309126 1.066452 -0.15877299 -0.5184985
000010 d4 ba 5c bf aa a3 35 3c b1 44 c0 bc a8 b9 94 bf
       -0.8622258 0.011086384 -0.023470255 -1.1619158
000020 e9 f2 d4 bd b8 4c 15 3e e7 28 7f bd 7a a9 9d be
       -0.10397894 0.14580047 -0.062294867 -0.30793363
000030 20 ab c7 3e 43 2a 11 3f a0 8a 7f bd 2f 63 72 3e
       0.38997746 0.5670511 -0.062388062 0.23670648
000040 0f 38 bc be 04 18 82 be 10 49 4b bf e6 9b 92 be
       -0.3676152 -0.25408947 -0.7940836 -0.28634566
000050 1c a0 55 3d 8d 20 31 bd c0 96 85 3e cf a4 43 3e
       0.052154645 -0.043243933 0.26091576 0.19105838
000060 2e e9 f8 be 74 eb ff 3e 9b ac d1 3c b3 f8 11 bf
       -0.48615402 0.49984324 0.025595 -0.5702011
000070 34 d0 8a 3e 7c 50 8e bf fa 0b 74 3e a6 7a 00 be
       0.2711197 -1.1118312 0.23832694 -0.12546787
000080 16 ef 0e bf d0 46 5c 3e 2a e1 c0 be b0 d2 73 bd
       -0.55833566 0.21511388 -0.37671787 -0.0595271
000090 da a2 41 3e 70 c2 50 3e 4d cf d8 3e 12 31 45 bb
       0.18909779 0.20386672 0.42345658 -0.0030089063
0000a0 8b d2 bb be 21 8d b0 3d 0e c1 0a bf 6c 97 69 bd
       -0.3668407 0.08620668 -0.5420083 -0.057029173
0000b0 79 a8 ba be 30 b3 78 3d 7e e4 4f bf 89 17 b4 3e
       -0.3645666 0.06071776 -0.81208026 0.35174206
0000c0 95 7f 3d bf fa 2a 29 bd df 68 e5 be 40 f6 0f 3e
       -0.740228 -0.04130075 -0.44806573 0.1405878
0000d0 7c ee c2 be 06 2d 9c 3e d2 0e 3d be ef d0 7a bf
       -0.38072574 0.305031 -0.18462685 -0.9797506
0000e0 1a 89 b5 be 2a b5 38 bb d1 55 43 be 31 95 81 3e
       -0.35456163 -0.0028184154 -0.19075705 0.25309137
0000f0 3f c9 2a 3d cd 7e 1a bf ec 7a 96 3e 61 71 df be
       0.04169583 -0.6034973 0.29390657 -0.4364119
000100 0f 7b 23 3e e7 7a 93 3e a0 bd 72 be b6 50 be bf
       0.15964912 0.28804705 -0.23705149 -1.4868381
000110 22 12 0d bf 74 84 16 bf 26 2c 06 3f f7 f4 68 3f
       -0.55105793 -0.5879586 0.52411115 0.90998787
000120 72 35 20 be bf 16 61 be 71 28 88 be af 03 3d 3f
       -0.15645388 -0.21981333 -0.26593354 0.73833746
000130 41 fd de be 6a 85 7f bf a0 45 be be bf 26 a4 bd
       -0.43552592 -0.9981295 -0.37162495 -0.08015203
000140 38 78 7a 3e 67 88 1b bf c2 f6 00 bf 7e 77 af bc
       0.24459922 -0.6075501 -0.5037652 -0.021419283
000150 fb ab e0 bd 29 3d 87 be 65 1f 35 3d 66 74 1a 3e
       -0.10970303 -0.2641385 0.044219393 0.15083465
000160 43 b5 91 bd ba 03 77 3e 4c 80 31 be 2f 5f c9 bd
       -0.07114651 0.24122515 -0.17334098 -0.09832608
000170 f3 bb 15 3e 9b bd 1b be b3 e0 14 bc 15 a7 5e 3f
       0.14622478 -0.15209047 -0.009086776 0.86973697
000180 89 74 9f bc e8 ca b0 3d 06 30 d0 3e 7e f1 54 3e
       -0.019464748 0.08632451 0.4066164 0.20795247
000190 a5 f3 6f 3e 39 63 c1 be 0d d8 0c c0 c4 15 27 bf
       0.23432787 -0.37771013 -2.2006867 -0.65267587
0001a0 a6 a9 58 be 46 f5 41 3f 2c 46 3b 3d 12 50 92 be
       -0.21158466 0.7576488 0.045721218 -0.28576714
0001b0 22 b3 05 bf fc 75 9f 3d 21 ea 73 be 36 b0 0b 3e
       -0.5222646 0.077861756 -0.23819782 0.13641438
0001c0 89 71 8f be c2 70 1e 3e 84 e5 d0 be 28 8c 31 3e
       -0.28016308 0.15472701 -0.40800107 0.17338622
0001d0 83 95 9b be 60 cf 39 3e 12 f5 03 be 30 5e 2e be
       -0.30387506 0.18145514 -0.12886456 -0.17028117
0001e0 6d d7 ea bc 7c 8c e8 3b db 67 f0 3b c5 28 d0 3e
       -0.028667176 0.007096825 0.0073365993 0.40656105
0001f0 04 0b e1 3e 3c cc ab 3e 63 8c 0f 3e 42 59 c5 3c
       0.43953717 0.33554256 0.14018397 0.024090413
000200 cf e7 2c be 8b 0a f9 3d 63 bd 44 3e 4c 35 04 bf
       -0.16885303 0.12160214 0.1921287 -0.51643825
000210 08 7a 81 bf 73 8a bd bd 2d 0e 8e bc c2 ba 30 bf
       -1.0115366 -0.09254923 -0.017340744 -0.6903497
000220 93 6f 8c be d8 58 87 3e 1e e1 ce be 55 d2 2c bd
       -0.27428874 0.2643497 -0.40406126 -0.042192776
000230 7b 45 88 bf 64 91 91 be 1d a0 c7 bd cf 0c 1a bf
       -1.0646204 -0.28431237 -0.09747336 -0.60175794
000240 c3 fe 2d bf ea c6 ad 3d 9c f3 11 3d 2c bb 69 be
       -0.6796686 0.084852055 0.035632715 -0.22825307
000250 19 e2 ef bd 79 d7 a4 be 77 96 46 bf 95 08 87 3e
       -0.117130466 -0.32195643 -0.7757334 0.26373735
000260 2c 1a 82 3d 43 17 8a 3d 6c 93 6c be 06 ce 2e 3c
       0.06352648 0.06742718 -0.23103112 0.010669237
000270 fd f2 f5 be 42 b6 b4 3c 75 6d 97 bf 57 32 06 bf
       -0.48036948 0.022059564 -1.1830279 -0.5242056
000280 05 df 1e bf bd fa 12 be 6b 51 2d be aa 1b ba 3e
       -0.6205905 -0.14353462 -0.1692559 0.3634923
000290 c2 e7 06 bf 4e 0f a7 be 3b 96 20 be 44 f3 a9 be
       -0.52697384 -0.32628864 -0.15682308 -0.3319341
0002a0 0f f1 dc be b5 87 13 3f 72 68 c4 3e 95 9a a3 be
       -0.43152663 0.5762895 0.38360935 -0.31953874
0002b0 41 b8 ee be c5 a9 c0 bd a6 80 d3 bd c8 32 78 3c
       -0.4662495 -0.09407381 -0.10327272 0.015148826
0002c0 0a 2b 13 be 9c 0f 48 3f 2f 13 9f be 83 0e dc be
       -0.14371887 0.7814882 -0.31069323 -0.42979822
0002d0 d4 d3 4f be 36 e4 00 3e 5d 53 f8 bd 15 3c 04 be
       -0.2029565 0.12587056 -0.12125275 -0.12913544
0002e0 95 3a 6b be 78 7c f9 bd 7e 9e be 3c 0e 1e 8e 3f
       -0.22971566 -0.12181944 0.023268934 1.1102922
0002f0 c3 bf 20 bf e5 a1 37 bf 58 a2 10 bf af ce ec bd
       -0.62792605 -0.71731406 -0.56497717 -0.11562859
000300 96 ca 81 3d 03 d2 06 bf 70 29 fe bd c4 5f 21 be
       0.06337468 -0.526642 -0.12410247 -0.15759188
000310 52 60 51 be c9 6b 4f 3e 00 4b 0f 3e eb 3f 60 bd
       -0.204469 0.2025596 0.13993454 -0.054748457
000320 23 1c 68 bf 44 66 8e be 48 0f d6 bd b6 a5 b8 be
       -0.90667933 -0.27812397 -0.104521334 -0.36063927
000330 06 8d c6 be 42 67 4b be 22 18 79 bf b3 85 bf 3d
       -0.38779467 -0.19863608 -0.9730245 0.09351673
000340 d0 ef b1 be c9 59 38 3c 03 65 2b 3d 4b f7 16 bf
       -0.34753275 0.011251875 0.04184438 -0.5897109
000350 c0 de ef be c9 41 8e bc a4 8a 56 be 43 61 0b bc
       -0.46849632 -0.017365353 -0.20951325 -0.008507076
000360 da fe e2 bd 39 9d 9e be 27 ca 55 bf bc 48 b1 bf
       -0.11083765 -0.30979326 -0.83511585 -1.3850322
000370 24 79 c3 be ab 8b a3 bf 0e 2d ff 3d f4 4e 46 be
       -0.3817836 -1.2776998 0.124597654 -0.19366056
000380 95 60 92 bf 06 2a 1a 3f 61 3d 63 bf de c0 68 bf
       -1.1435724 0.6022037 -0.8876553 -0.9091929
000390 3f 14 28 bd 60 c3 89 3e 3a 17 37 3d b5 88 83 3e
       -0.041034933 0.26906872 0.044699885 0.25690237
0003a0 ae 74 f9 bd aa 3c 4b bf 79 7b 20 bf 5c c1 b2 be
       -0.12180458 -0.7938944 -0.62688404 -0.34913146
0003b0 f3 5f a8 be c8 50 36 be 5b e0 a1 be 15 2d 65 bc
       -0.32885703 -0.17804253 -0.31616482 -0.013987799
0003c0 9e 42 d0 bd 0e e9 ed 3b d6 29 d7 be eb 53 8f be
       -0.10168956 0.0072604483 -0.42024106 -0.27993712
0003d0 19 c0 8f be fa 27 cb be c9 cc 4e be 8f 72 c7 3d
       -0.28076246 -0.39678937 -0.20195307 0.09738647
0003e0 b7 25 bf be 60 5c ac be 4d ce 9d bd 64 ad 4a be
       -0.37333462 -0.33664227 -0.077053644 -0.19792706
0003f0 29 e7 d4 be 9d 30 27 be e6 f6 d6 bc 2d 7c f4 be
       -0.4158261 -0.16327138 -0.026240777 -0.4775099

features.norm0.weight f4 [256]
000000 f5 bd 7d 3f 8a 28 71 3f 01 78 9c 3f 04 07 84 3f
       0.99117976 0.9420248 1.2224122 1.0314641
000010 18 57 7d 3f 96 83 69 3f 63 ac 9d 3f d8 a6 36 3f
       0.9896102 0.9121641 1.2318233 0.71348333
000020 70 a2 a2 3c 55 7b 9b 3f 74 2f 7f 3f de ca d2 3f
       0.019852847 1.2147013 0.9968178 1.646816
000030 98 ad a6 3f 89 e1 6e 3f 98 c4 86 3f 53 3e 86 3f
       1.3021727 0.9331289 1.0528746 1.048777
000040 ab 73 79 3f 65 6b 86 3f c5 f6 83 3f 67 65 7b 3f
       0.9744212 1.0501524 1.0309683 0.982016
000050 3d c2 74 3f f7 8f 86 3f 91 14 86 3f 84 82 9b 3f
       0.95608884 1.0512685 1.0475026 1.2149205
000060 78 01 75 3f 5d c8 88 3f 80 c4 7d 3f 26 3e 7e 3f
       0.95705366 1.0686146 0.9912796 0.9931358
000070 ce 30 81 3f b2 95 82 3f 71 3e 60 3f e5 7b 73 3f
       1.0093019 1.0201933 0.8759528 0.95110923
000080 34 c3 f4 3f ee ec 99 3f 70 17 7e 3f 84 f0 60 3f
       1.9122071 1.202543 0.9925451 0.87867
000090 46 15 92 3f 03 dc 82 3f 92 a5 80 3f bf 75 67 40
       1.1412742 1.0223392 1.0050528 3.6165617
0000a0 62 11 84 3f a8 04 94 3f 52 5a 97 3f 45 5c 72 3f
       1.0317805 1.1563921 1.1824439 0.9467204
0000b0 d1 14 80 3f 63 f9 b9 3f 31 61 b1 3f 36 2d 8a 3f
       1.0006353 1.4529232 1.3857785 1.0795047
0000c0 2c a1 85 3f d6 7a c7 3f fa 96 00 40 67 d6 86 3f
       1.0439811 1.5584362 2.0092149 1.053418
0000d0 36 28 85 3f b5 b7 71 3f d1 e7 7f 3f cb 6b 9e 3f
       1.0402896 0.9442094 0.999631 1.2376646
0000e0 6a 1e 80 3f 98 24 81 3f 8a f7 85 3f 8c c5 82 3f
       1.0009282 1.0089293 1.0466168 1.0216537
0000f0 72 f8 78 3f 46 c0 7a 3f 7f 01 a8 3f a6 42 80 3f
       0.972541 0.97949636 1.3125457 1.002034
000100 c4 47 75 3f 8b 96 84 3f 39 2f 87 3f 1a ac 7b 3f
       0.9581263 1.0358442 1.0561286 0.9830948
000110 9d cc de 3f a1 cb ba 3f 9f 48 4e 3f 30 e3 83 3f
       1.7406193 1.4593393 0.8057956 1.0303707
000120 21 45 87 3f 8d 6f 7c 3f 08 1a b9 3f 44 23 83 3f
       1.0567971 0.98607713 1.4461069 1.0245137
000130 f9 9e c2 3f 4c 79 72 3f 85 82 57 3f 85 83 7e 3f
       1.5204765 0.94716334 0.8418353 0.9941943
000140 93 f9 67 3f bf b0 89 3f cf f4 61 3f 97 47 52 3f
       0.90615195 1.0757064 0.88264173 0.8214049
000150 b7 be 7c 3f 33 49 81 3f 8d c6 81 3f e4 f4 89 3f
       0.9872851 1.0100464 1.0138718 1.077786
000160 88 4e 7f 3f 56 5d 1a 3f dc cf cc 3f a3 b3 80 3f
       0.99729204 0.6029867 1.6000934 1.0054821
000170 7c 8f 7f 3f 33 11 9d 3f 8f af 83 3f 21 19 8e 3f
       0.99828315 1.2270874 1.0287951 1.1101419
000180 20 61 99 3f d6 f8 a9 3f 01 8e ce 3f 21 3a 88 3f
       1.1982765 1.3279064 1.6137086 1.064274
000190 01 4d 7c 3f e3 35 5a 3f 7d ec a3 3f 61 bb 7c 3f
       0.98555 0.85238475 1.2806545 0.9872342
0001a0 96 62 88 3f 67 bd d9 3f 8f f3 7f 3f 14 2f 7a 3f
       1.0655086 1.7010926 0.99981016 0.97728086
0001b0 6d c3 91 3f 99 e4 63 3f 28 b1 87 3f 7b 4d 0d 40
       1.1387764 0.8902069 1.0600939 2.207854
0001c0 59 c5 86 3f 3a 79 51 3f c5 f7 37 3f c8 d7 95 3f
       1.0528976 0.818256 0.7186244 1.1706476
0001d0 49 f4 76 3f 09 8f 7f 3f 79 fd 74 3f 8d d9 ae 3f
       0.964665 0.9982763 0.9569927 1.3660141
0001e0 52 d5 54 3f dc 15 7b 3f e5 6c 9d 3f 3d d3 68 3f
       0.83138 0.9808023 1.2298857 0.90947324
0001f0 6b 6d 89 3f 51 65 7e 3f 55 8b 7e 3f 42 ec 5e 3f
       1.0736517 0.99373347 0.99431354 0.8707925
000200 b6 f5 de 3f 73 ca 0d 40 2a bf bb 3f 80 52 81 3f
       1.7418735 2.2154815 1.4667714 1.0103302
000210 85 16 7d 3f 4e fd 7f 3f 76 86 7a 3f 13 02 a6 3f
       0.9886249 0.9999589 0.9786142 1.2969383
000220 e8 1e ab 3f 79 38 8f 3f 61 b3 77 3f e8 49 04 40
       1.3368807 1.1189109 0.96758085 2.0670109
000230 b0 9b 86 3f 78 d8 91 3f 59 c2 84 3f 78 81 79 3f
       1.0516262 1.1394186 1.037181 0.9746318
000240 dc 92 53 3f e8 09 95 3f fa af 0e 40 4f 09 de 3e
       0.82645965 1.1643648 2.2294908 0.43366477
000250 f5 68 41 3f 08 0a 5d 3f 6e 04 7b 3f 72 88 7f 3f
       0.75550777 0.8634343 0.98053634 0.99817574
000260 cb 54 07 3f 4a 2b 86 3f 8e e8 7b 3f 2e 84 96 3f
       0.5286376 1.0481961 0.98401725 1.1759088
000270 76 b6 a0 3f e6 7e 8a 3f fb d6 7f 3f 19 4c 8f 3f
       1.2555683 1.0819976 0.9993741 1.1195098
000280 06 21 9d 3f 7e a2 26 3f f5 53 94 3f 8c 14 7d 3f
       1.2275703 0.65091693 1.1588122 0.9885948
000290 e9 87 00 40 9c a8 eb 3f 32 c5 4d 3f e1 e8 94 3f
       2.0082953 1.841083 0.8037902 1.1633569
0002a0 43 7e 7e 3f 6d cb 87 3f 9b d1 7f 3f 97 7b 7c 3f
       0.9941141 1.0608956 0.9992921 0.98626083
0002b0 35 a1 7a 3f 79 3d 7e 3f cd 8a 87 3f e7 91 1a 3f
       0.9790223 0.9931255 1.0589234 0.6037888
0002c0 fe 61 83 3f 73 2b 10 40 47 14 7d 3f 28 55 0b 40
       1.026428 2.252652 0.98859066 2.1770725
0002d0 66 19 4d 40 c6 88 7f 3f d0 a7 80 3f 7b de b3 3f
       3.2046752 0.99818075 1.0051212 1.4052271
0002e0 7d 6b 3b 3f 94 21 68 3f 93 08 49 3f e4 60 74 3f
       0.7321089 0.90676236 0.7852871 0.95460343
0002f0 2a 35 81 3f ab 5f 9d 3f e9 ce 8f 3f 65 11 86 3f
       1.0094349 1.229482 1.1235019 1.0474058
000300 62 a7 90 3f 5c 72 5a 3f 96 9c 7b 3f a0 6a 09 3f
       1.1301081 0.8533075 0.98285806 0.5367832
000310 20 ff 76 3f 87 26 7d 3f a8 81 9e 3f a3 02 80 3f
       0.9648304 0.98886913 1.2383318 1.0000805
000320 10 ef a2 3f 30 a7 7c 3f f1 0a 93 3f 5f 3b 7c 3f
       1.2729206 0.9869261 1.1487714 0.98528093
000330 ea f1 18 40 c8 ef 7f 3f 70 79 7d 3f 22 a9 0e 3f
       2.3897653 0.9997525 0.99013424 0.55726826
000340 83 df 7f 3f e6 5e 7d 3f 4a 5f ca 3f 42 e0 83 3f
       0.99950427 0.9897293 1.581033 1.0302813
000350 2f fc a9 3f 73 f8 bc 3f 3f 37 4b 40 88 53 9b 3f
       1.3280085 1.4763321 3.175247 1.2134867
000360 29 43 a6 3f c2 d3 5c 3f d3 d6 82 3f 1e f3 ab 3f
       1.2989246 0.86260617 1.0221809 1.3433568
000370 55 ae 7a 3f fc 0a 77 3f 1e 02 83 3f 77 1a 22 3f
       0.9792226 0.96501136 1.0235021 0.6332163
000380 9e 32 ab 3f 28 99 82 3f f6 c4 7f 3f 7e b2 66 3f
       1.3374822 1.020299 0.99909914 0.9011611
000390 b6 2d 8d 3f 35 30 85 3f 17 0d 81 3f f2 dd 7f 3f
       1.1029575 1.0405337 1.008212 0.99948037
0003a0 31 bd 7f 3f 94 c3 79 3f 7f 2a 87 3f 70 34 5d 3f
       0.9989806 0.97564054 1.0559844 0.8640814
0003b0 1f d9 a6 3f 22 63 32 3f 07 b6 7f 3f 03 98 aa 3f
       1.303501 0.69682515 0.99887127 1.332764
0003c0 5d 2a 83 3f e0 1f 84 3f 00 37 80 3f 74 83 7e 3f
       1.0247303 1.0322227 1.0016785 0.9941933
0003d0 68 df 52 3f e4 a4 b2 3f 1b 37 d0 3f 2d 7e 8c 3f
       0.8237214 1.3956571 1.6266817 1.0976006
0003e0 18 2e 78 3f 39 98 2a 3f 63 d3 4a 3f 94 c2 55 3f
       0.96945333 0.66638523 0.792288 0.8350003
0003f0 a9 f7 88 3f 7d 8e 7c 3f 93 8a 86 3f 18 1c 8a 3f
       1.070058 0.9865492 1.051104 1.0789824

features.norm0.bias f4 [256]
000000 cf df 33 3e 29 fa b5 3e ec 2b 34 3e 3e 34 20 be
       0.17565845 0.3554242 0.1759488 -0.15644929
000010 4d d5 63 bf 1f 77 19 3f 14 a3 8a bf 80 bf 43 bf
       -0.88997346 0.5994739 -1.0831017 -0.7646408
000020 f4 80 96 bf 7b 11 23 be 8b 83 d4 bd ce 73 79 be
       -1.1758103 -0.15924637 -0.10376652 -0.24360582
000030 61 ba 12 3f 87 8e e7 3e 66 27 d4 bc 44 b4 45 3d
       0.5731564 0.45225927 -0.025897693 0.048267618
000040 47 35 69 be 8c 1c b9 3d 16 1a d5 3d 44 0b 8d 3e
       -0.2277423 0.09038648 0.10405366 0.27547657
000050 ec 4b b1 3e cb 95 75 3e fb 0a 79 bd 8b ce d5 bd
       0.34628236 0.23982923 -0.060801487 -0.104397856
000060 11 ab a5 3e 8c a7 8d 3d ad 77 11 be 08 0d 06 3e
       0.32357076 0.06916723 -0.14205809 0.13090909
000070 ef 5b a5 3d 6d 38 98 3c 14 a1 00 bf 62 6e ac be
       0.080741756 0.018581593 -0.50245786 -0.33677965
000080 3b f7 bb 3e 58 57 07 be 2c 0e 20 be 3b 01 4e 3f
       0.3671206 -0.13216913 -0.15630406 0.8047063
000090 83 f6 53 3d 26 f0 aa 3d e0 41 a5 3d 74 b3 07 bf
       0.051748764 0.08346586 0.08069205 -0.530082
0000a0 76 65 78 3d 16 67 02 bd 4f 9e 07 be 80 0b c9 3e
       0.060643636 -0.03183659 -0.13243984 0.39266586
0000b0 7a 20 5d 3d 75 bd 11 be 2a 19 1c be 65 82 f0 3e
       0.05398605 -0.14232428 -0.15243974 0.46974483
0000c0 c9 23 2e 3e c3 aa 55 be 3c e4 9b bd 2c 99 4c 3c
       0.17005838 -0.20865922 -0.076118916 0.012487691
0000d0 29 28 e2 3d 49 5e b1 be 15 92 14 3d 1f b2 62 be
       0.11042816 -0.34642246 0.036272127 -0.2213826
0000e0 6b 1b c7 bc 99 dd 57 3e d5 7d ec 3e 2f 78 d6 3c
       -0.024305066 0.21080627 0.46189752 0.026180355
0000f0 ff 74 81 be 57 82 7e be 39 1c 86 3f fb 0d 09 3e
       -0.25284573 -0.24854408 1.0477363 0.1338424
000100 a0 e1 97 be 45 98 25 3e e3 1d b9 be a4 c7 6e be
       -0.29664326 0.16171367 -0.36155614 -0.23318344
000110 65 91 7e bd 0c 6b 9c 3e 1a 99 86 bf df b2 27 3e
       -0.062150378 0.3055042 -1.0515473 0.16376828
000120 bb 61 62 bf 07 a7 a9 3e 88 9d a2 be 61 86 94 3e
       -0.88430375 0.33135244 -0.31760812 0.29008773
000130 1e b5 84 3c ae 04 bc be 67 5e 3a bf f1 3a ec 3d
       0.016199645 -0.3672232 -0.72800297 0.1153468
000140 a2 93 6e bf 75 9f 07 3e b2 b5 2d bf 71 52 56 bf
       -0.9319402 0.13244422 -0.6785537 -0.83719546
000150 5a 97 41 3e 86 b5 7f be 48 22 02 bd 0f 77 87 3d
       0.18905392 -0.2497159 -0.031770974 0.066145055
000160 7f 71 b6 bd fc e2 58 bf bf ef fd be 84 1e 51 3d
       -0.089083664 -0.8472135 -0.49596974 0.051054493
000170 64 49 a7 bd d9 eb 6a bd a7 6b 29 bd 62 dd 4f be
       -0.08168295 -0.057353828 -0.04136243 -0.20299295
000180 4a 80 61 bf 84 0d f7 3e 79 84 a4 3d f8 09 86 bf
       -0.8808638 0.482525 0.0803308 -1.0471792
000190 5b d3 6f 3e a3 27 21 bf 62 0a 7a 3e 54 e5 31 3e
       0.2342047 -0.62951106 0.24418023 0.17372638
0001a0 a5 21 a9 3e 0d 70 98 be 47 f1 0f 3d 5c a1 70 3e
       0.3303348 -0.29772988 0.03514221 0.23499054
0001b0 64 65 c1 bd 34 17 0d 3f 36 d3 94 be 96 af 39 bf
       -0.09443167 0.5511353 -0.2906739 -0.7253355
0001c0 34 45 db 3d 93 d1 21 bf 86 2a db bf 45 b2 00 3e
       0.10706559 -0.6321041 -1.7122352 0.12568004
0001d0 dd 93 8e be c6 69 a1 bd 09 92 b5 3e 4d da 35 be
       -0.27847186 -0.07881503 0.35462978 -0.17759056
0001e0 1e d9 1c bf ea 08 5d be d6 16 8f 3c de de f3 be
       -0.61268795 -0.21585432 0.017466944 -0.47630972
0001f0 e3 97 fb 3d 7e 45 0a be eb 3d 5b 3e cc 80 33 bf
       0.122848295 -0.13503072 0.21410339 -0.70118403
000200 b2 95 d9 bf 1d aa 03 3e 83 b5 53 c0 e7 fd 03 bc
       -1.6998808 0.12857862 -3.3079536 -0.0080561405
000210 e6 4f 41 3e 24 c9 85 bd 33 fa 65 be 28 12 c1 bd
       0.18878135 -0.06532505 -0.22458725 -0.09427291
000220 37 b1 4f be c6 f8 a0 3d 8d 0f 88 be ee f2 71 be
       -0.20282446 0.0785995 -0.26574364 -0.23627827
000230 b0 e3 41 3e fe f1 79 bf a7 0e 1f be 3a 70 6d 3e
       0.18934512 -0.97634876 -0.15532933 0.23187342
000240 2b 9c 72 bf 60 11 34 3e da ba 04 bf 71 7c eb bf
       -0.94769543 0.17584753 -0.5184761 -1.8397352
000250 5b 69 e2 bf f5 cf 26 3f 40 c4 80 be 99 b8 84 3d
       -1.7688402 0.6516107 -0.25149727 0.06480522
000260 1f 60 74 bf a5 e3 82 bf 4c e0 4a be 69 de ff bd
       -0.9545917 -1.0225722 -0.19812125 -0.12493593
000270 37 43 09 3e fb d8 4c 3e 2e 65 99 bd 45 28 f4 3d
       0.13404547 0.20004646 -0.074900016 0.11921743
000280 a7 20 3c be 22 47 95 bf d5 e0 aa 3e 76 64 95 be
       -0.18371831 -1.1662333 0.33374658 -0.29178208
000290 15 30 04 bf 06 43 9f bf c7 a3 57 bf f5 38 21 be
       -0.5163587 -1.2442329 -0.8423428 -0.15744384
0002a0 3c 0a 91 3e 85 26 c1 3d 2a 23 36 bd f2 ae 49 be
       0.2832812 0.09431175 -0.04446713 -0.19695643
0002b0 ed ad 69 3e 95 91 18 be 4e 40 44 3d 7f c8 92 bf
       0.22820254 -0.14899285 0.04791289 -1.1467437
0002c0 14 8b 06 be 99 0d 1f bf 12 38 23 be 16 3f 01 bf
       -0.13138992 -0.62130123 -0.15939358 -0.50486887
0002d0 52 0e 26 3d 4d fe 8f 3d 61 4a 95 3d 5b 67 c4 bd
       0.040541 0.07030926 0.07289577 -0.09590026
0002e0 a7 4f 33 bf 16 b7 10 bf ff 28 6b bf d3 01 a6 3e
       -0.70043415 -0.56529367 -0.9185943 0.32423267
0002f0 47 01 fc 3d 82 a2 99 bf e8 cf 3e 3d f8 02 5c bd
       0.12304931 -1.2002718 0.046584994 -0.05371377
000300 c4 cc 0e 3e 6a 33 19 bf 67 dc 4d be db bc 88 bf
       0.139453 -0.59844077 -0.20103608 -1.0682634
000310 c8 69 9e 3e 3a a4 91 3e 26 c7 89 bd a5 8e 01 39
       0.3094008 0.28445607 -0.06727438 0.00012355538
000320 32 e8 75 bf 9e a6 36 be 42 9b e4 bd 51 c7 b8 3e
       -0.96057427 -0.17836997 -0.111624256 0.36089566
000330 48 5f ef be a0 60 1c be b9 2a 72 be 47 05 b0 bf
       -0.4675238 -0.15271235 -0.2364911 -1.375161
000340 cd 8a 53 bd 54 fa 4a 3e 18 16 24 3f 70 20 3b be
       -0.051646043 0.19822055 0.6409621 -0.18274093
000350 3e 17 69 be 68 c6 17 be d2 26 37 be db 0b 43 be
       -0.22762772 -0.1482178 -0.17885903 -0.19047491
000360 c5 ce 89 3e 0a e2 08 3f 94 4e e0 3c 67 a1 9e bd
       0.26915565 0.5346991 0.027381219 -0.07745629
000370 01 d8 5b be 57 fd 88 be b4 1a 8c 3e f6 d1 55 bf
       -0.21469118 -0.26755783 0.27364123 -0.835235
000380 da b1 ab 3e 97 d6 11 3e cb 70 81 bd 70 c9 72 bf
       0.33534127 0.14242016 -0.06320342 -0.9483862
000390 cd d7 9d bf 97 9b a9 3d a6 5f 71 3e 1b c2 29 3d
       -1.2331482 0.082816295 0.23571643 0.04144488
0003a0 16 85 86 bd 70 6d 8d 3e 8c 0d 86 be b4 c9 2d bf
       -0.06568353 0.27622557 -0.2618221 -0.678859
0003b0 31 fe f7 be f0 0c 51 bf 4f 06 82 3d 67 85 4c bc
       -0.4843612 -0.81660366 0.063488595 -0.0124829775
0003c0 96 73 15 3e 7d 98 6a be 7e f5 2e 3c 6d 02 7c be
       0.14594874 -0.22909732 0.010678647 -0.246103
0003d0 6d 65 58 bf 04 7d 30 3e 50 3e 1f be c6 68 50 be
       -0.84529763 0.1723519 -0.15551114 -0.20352468
0003e0 16 58 8e be 42 61 5e bf 12 28 47 bf 2b f3 15 bf
       -0.2780158 -0.86867154 -0.7779552 -0.5857417
0003f0 60 55 47 bd a0 e3 e8 3e 94 71 95 3e d3 fe 1f be
       -0.048665404 0.45486164 0.29188216 -0.15624551

features.norm0.running_mean f4 [256]
000000 92 a2 91 bd cb f4 3c be c0 e0 97 be 37 07 34 bd
       -0.07111086 -0.18452756 -0.29663658 -0.043952193
000010 65 9d e1 be a4 8f 81 be 89 f6 15 bf a8 d8 96 be
       -0.44065395 -0.25304902 -0.5857931 -0.2946217
000020 fd 96 1c be d2 79 83 be 83 a3 ae 3d a7 e2 43 be
       -0.15291972 -0.2567888 0.08527281 -0.1912943
000030 bf 3e bf be d6 08 8d be 29 2e 60 be fb 80 88 be
       -0.3735256 -0.27545804 -0.21892609 -0.26660904
000040 58 28 c4 3c f6 f3 6d be 0e 92 04 be 98 b9 44 be
       0.023945019 -0.23237595 -0.1294634 -0.19211423
000050 f6 d1 7c be 6d be d5 be 0b 86 89 be 34 85 9c be
       -0.24689469 -0.41746846 -0.2686008 -0.30570376
000060 2a db 5e be 1a bb 58 be 46 36 28 3d 94 ea 3f be
       -0.21763292 -0.21165124 0.041067384 -0.18741828
000070 93 7e 47 be 52 8f 6b be 27 b1 3e 3d e6 70 a7 3b
       -0.19481878 -0.23003891 0.046555664 0.005109894
000080 50 5e 1d bf 5c e9 b8 be ad 67 2b 3d a9 ee 7c be
       -0.61472034 -0.3611554 0.04184692 -0.24700417
000090 80 88 83 be 85 63 09 be f5 26 da bd 36 bb d5 bf
       -0.2569008 -0.1341687 -0.10651962 -1.6697757
0000a0 73 eb 8a be b8 bf b5 be f5 8d 65 be b3 78 ae be
       -0.27132758 -0.35497832 -0.22417434 -0.3407646
0000b0 ec 16 1b bd bf df 25 bf 45 7c c9 be 6f 86 c7 be
       -0.037863657 -0.64794534 -0.39352623 -0.38969752
0000c0 48 11 73 be f0 3e da be 5e c1 c8 be 7b 6f 69 be
       -0.23737061 -0.42626143 -0.39210027 -0.22796433
0000d0 60 2f a6 be 17 4e 93 3d 04 d5 94 bd dc da b8 be
       -0.3245802 0.07192629 -0.07267192 -0.36104476
0000e0 7a ff c3 3d e5 fd bb be 4f 7f a1 be 49 27 86 bd
       0.09570213 -0.36717144 -0.3154244 -0.06550462
0000f0 0c 8b 7d 3d 51 fd 98 3d 1b 93 d6 be a4 df a9 be
       0.061900184 0.07470191 -0.41909108 -0.33178437
000100 21 f2 47 3d 9d bc 95 bd 7c 59 1d be a9 d0 0e 3e
       0.048814896 -0.07311366 -0.15366167 0.13946785
000110 4b b7 0c bf 01 e2 d2 be 9e 51 e1 be 45 60 6b be
       -0.5496718 -0.41188052 -0.4400758 -0.22985943
000120 b3 b5 fc be b2 bc 33 be 38 9f 99 be 48 49 50 be
       -0.49357376 -0.1755245 -0.30004287 -0.20340455
000130 55 3b 13 bf 5f 99 e1 3d 5f d5 81 be d8 ee 99 bd
       -0.5751241 0.11015581 -0.25358102 -0.07516259
000140 73 24 c8 be 45 b6 24 be 27 e5 bb be 57 62 d8 be
       -0.3909031 -0.16085155 -0.36698267 -0.42262527
000150 d0 fa df bd 5f 7f 59 3c a2 fb 33 be d8 a9 b8 be
       -0.109365106 0.013274997 -0.17576459 -0.3606708
000160 09 6a 17 3d 94 97 7b be d9 5d 01 bf 87 ee f5 3b
       0.036966357 -0.24569541 -0.50533825 0.0075052413
000170 5f 2e d6 3c cd 36 85 be f5 ce 84 be fa 34 85 be
       0.026145158 -0.26018372 -0.25939146 -0.2601698
000180 64 8f d0 be bd 8e 66 be c4 93 1c bf 68 f2 cc be
       -0.40734398 -0.22515388 -0.6116297 -0.4002869
000190 64 dc 7b be 94 ec 07 bd ba c4 d2 be d2 5c 8f bd
       -0.24595791 -0.033184603 -0.41165715 -0.07000126
0001a0 a2 95 8b be df c8 ff be 0b 2e be bd 31 7e 8b be
       -0.27262598 -0.4995794 -0.09286126 -0.27244714
0001b0 64 c3 b3 be f0 aa 36 be 08 28 01 bd f6 05 21 bf
       -0.3511001 -0.17838645 -0.031532317 -0.6289972
0001c0 7b 4c 6f be 80 de 97 3d 1e 80 e7 3d 52 4d d0 be
       -0.23369019 0.074154854 0.11303733 -0.4068399
0001d0 e1 9e 93 3c 5a 1f b7 bd 11 36 36 be e2 de a0 be
       0.018020095 -0.08941527 -0.17794062 -0.31420046
0001e0 db 47 f7 3d 0e c6 02 3d 5d bb cf be 6d 34 31 3d
       0.12074252 0.03192716 -0.40572634 0.043262888
0001f0 a9 7b 99 be a2 b9 99 3d 29 89 63 be c7 b5 af be
       -0.29977158 0.0750611 -0.22220291 -0.34318373
000200 73 99 76 be 46 bf fa be c0 29 20 3e 23 89 59 be
       -0.24081974 -0.48974055 0.15640926 -0.2124372
000210 f8 a5 85 bd ff 1e c4 3c 12 f0 e5 bc 2b 91 8f be
       -0.06525797 0.023940561 -0.028068576 -0.28040442
000220 80 4e e0 be 07 97 8f be c1 a3 b1 3c 3b df 75 bf
       -0.4380989 -0.28044912 0.02168453 -0.9604375
000230 7f c0 69 be 29 e7 cc be ca ca 59 be dc 06 c1 bd
       -0.22827338 -0.4002011 -0.21268764 -0.094251364
000240 4d d8 b0 be fb 15 b3 be 3a e3 03 bf 00 64 bb be
       -0.34540024 -0.34977707 -0.51518595 -0.3659973
000250 11 e2 96 bf 17 52 7e be e9 63 b1 3b e9 bf e6 bd
       -1.178774 -0.24836002 0.0054135215 -0.11267073
000260 12 22 b1 be 4e db ea be b1 1d 00 3d 49 95 ec be
       -0.34596306 -0.4587044 0.031278316 -0.46207646
000270 7c 3b 8c be 26 3d cf be 4f 6a 09 bb 0a 53 8e be
       -0.27389133 -0.4047634 -0.0020967906 -0.2779773
000280 48 c2 22 bf e9 5b 0a 3e 31 eb 7e be a5 c9 61 bd
       -0.635777 0.13511623 -0.24894406 -0.055123944
000290 73 ba d1 be 3a 3d f8 be 89 4d d1 be ce f6 9e be
       -0.40962562 -0.48484212 -0.40879467 -0.31047672
0002a0 72 f0 7e be 7c 45 82 be 89 a7 9e bd 97 fc c6 bc
       -0.2489641 -0.25443637 -0.077467985 -0.024290366
0002b0 b1 0e 42 be 9a 51 2e 3d 9b a6 c7 be c5 17 d9 3c
       -0.18950917 0.04255829 -0.38994297 0.026500592
0002c0 b1 c2 1f 3d 79 5b a4 be 6d e0 0b be e8 3c 8a be
       0.03900403 -0.32101038 -0.1365983 -0.26999593
0002d0 7a ff 34 bf e1 ee 1a be 7d c6 14 be f7 ca 48 3e
       -0.70702326 -0.15130188 -0.14528842 0.19608675
0002e0 a5 f3 9c 3c d8 7f 81 be 60 10 d4 be 97 5e 6f be
       0.019159148 -0.2529285 -0.41418743 -0.23375927
0002f0 5e ff 13 be d3 70 69 be bc e4 a4 be 9a d1 91 be
       -0.14452884 -0.22796945 -0.3220576 -0.28480226
000300 50 47 85 be 5e 12 82 be 5d c3 61 bc d0 43 e1 be
       -0.2603097 -0.25404638 -0.013779488 -0.4399705
000310 b0 87 55 be 99 58 80 be 50 68 9b be 5d a1 90 bd
       -0.20852542 -0.25067595 -0.30353022 -0.070620276
000320 e6 29 a7 be 90 14 60 3d f0 bb 1d be f5 27 ae be
       -0.32649153 0.05470711 -0.15403724 -0.3401486
000330 bb 1f 67 bf 50 51 a0 3c b1 0c 8c bd bb fd 50 be
       -0.9028279 0.019570023 -0.06838358 -0.2040929
000340 06 37 4b bd e1 79 dc bd 88 5e d1 be 2d ba 8b be
       -0.04961302 -0.10765434 -0.40892434 -0.27290478
000350 bb c6 8f be f8 0e 23 bf 5a 09 b4 bf 35 1c 98 be
       -0.28081307 -0.63694715 -1.4065354 -0.2970902
000360 bb c2 e5 be 5e e5 76 be 7b 17 06 be 7e c4 97 be
       -0.4487513 -0.24110934 -0.13094895 -0.296421
000370 1a 82 04 3d bc 11 59 3c c1 0f d3 bd 88 8a 98 be
       0.032350637 0.013248857 -0.10305739 -0.2979319
000380 a7 87 ee be 0a ea 70 be 56 ac 7d bd ca e5 e8 be
       -0.4658787 -0.23526779 -0.06193193 -0.45487815
000390 5c f8 b7 be f2 9e 83 be c4 49 8e be 83 41 93 bd
       -0.3593167 -0.25707203 -0.27790654 -0.0719023
0003a0 45 f0 03 3e 15 8f 50 be 10 46 3c be ba b9 65 be
       0.12884624 -0.20367081 -0.18386102 -0.2243413
0003b0 37 c2 8c be 2b a0 c9 be 63 6b 8f bd 36 36 e2 be
       -0.27491924 -0.3938001 -0.07002904 -0.44181985
0003c0 61 97 30 be a6 45 27 be cd 9f ef 3d 97 21 85 3d
       -0.17245246 -0.16335163 0.117004015 0.065005474
0003d0 20 01 c5 be 95 67 af be 20 e3 f5 be e0 7e 4c be
       -0.3847742 -0.34258714 -0.48024845 -0.19970274
0003e0 b8 d7 16 bc 3f 45 8c be 96 6c 67 3d a8 80 fa 3c
       -0.009206705 -0.2739658 0.05650004 0.030578926
0003f0 94 1c 74 be 77 68 8f be 9b 66 aa be 4f ec 12 be
       -0.23839027 -0.28009388 -0.33281407 -0.14347957

features.norm0.running_var f4 [256]
000000 69 32 67 3d fa 38 b7 3e f4 a4 07 3f b1 cc 53 3d
       0.05644456 0.35785657 0.52986073 0.05170888
000010 7f 5a 95 3f 8b 48 06 3f d3 68 43 40 5c ea e0 3e
       1.1668242 0.5245444 3.053273 0.43928802
000020 ec d3 d7 3e 0a 9b fe 3e ab b6 54 3d 01 74 45 3e
       0.4215387 0.4972766 0.05193202 0.19282533
000030 a7 94 c9 3f 30 0e 11 3f 12 32 2d 3e a8 87 f0 3e
       1.574849 0.56662273 0.16913632 0.46978498
000040 4a a9 01 3d b3 1f e6 3e 0b 57 88 3e 44 87 b1 3e
       0.031655587 0.4494606 0.2662891 0.34673512
000050 c5 a7 07 3f 1d 53 b1 3f 2d a6 12 3f 6a 6f 0f 3f
       0.5299037 1.3853489 0.57284814 0.5602938
000060 8a 66 a2 3e f6 54 be 3e f4 11 67 3d 3f cc 0c 3f
       0.31718856 0.37174195 0.056413606 0.54999155
000070 60 c2 8e 3e 5b 97 8e 3e 9e 21 8e 3d 75 37 db 3d
       0.2788267 0.2784985 0.06940006 0.10703937
000080 f2 93 3b 40 42 79 65 3f 76 98 b3 3d 7b 3e c1 3e
       2.9309049 0.8963815 0.08769314 0.3774298
000090 4d 3c b5 3e b6 99 13 3e ef 2d 75 3d d3 6d e9 41
       0.35397568 0.14414105 0.05985826 29.178625
0000a0 08 ef ba 3e b3 e4 56 3f e0 2c 31 3e 79 51 33 3f
       0.3651049 0.8394272 0.17302275 0.7004619
0000b0 37 ae 3c 3e 4b 48 8b 40 6a 91 1e 3f 2f f7 9f 3f
       0.18425833 4.352575 0.61940634 1.249731
0000c0 95 0c c9 3e 98 6a 52 3f f2 50 db 3f 9f 17 b7 3e
       0.39267412 0.821939 1.7134078 0.3576021
0000d0 62 fd 66 3f 85 6b e0 3d c4 a0 28 3e 90 c6 3c 3f
       0.9023038 0.10958008 0.16467577 0.7374048
0000e0 24 77 cc 3d 9e 18 83 3f 83 be 23 3f d3 66 8d 3e
       0.09983662 1.0241888 0.6396257 0.2761751
0000f0 52 3c c2 3d d8 1f b3 3d 8f 33 ad 3f f5 e8 5c 3f
       0.094841614 0.08746308 1.353136 0.86292964
000100 20 03 92 3d 8d ab b8 3d 6c c4 0d 3e d5 85 59 3e
       0.07129502 0.09017096 0.1384446 0.21242459
000110 d1 4d 17 40 19 76 1c 40 26 58 ea 3f 0a a4 c6 3e
       2.3641245 2.444708 1.8308151 0.38797027
000120 14 12 ed 3f 87 d8 14 3e 5d ee 0f 3f 7d ca e5 3e
       1.8521142 0.14535724 0.5622309 0.4488105
000130 09 40 f0 3f 90 65 34 3e 33 3a b7 3e 9e 1a 37 3e
       1.8769542 0.17616868 0.3578659 0.17881247
000140 50 dc 85 3f b7 25 c0 3e e4 09 8c 3f 7b 6e 5b 3f
       1.0457859 0.37528774 1.0940518 0.85715455
000150 f6 5e 11 3e 63 2d e7 3d f4 28 89 3e 55 a5 2e 3f
       0.14196381 0.11287954 0.26789057 0.68221027
000160 3c f6 10 3d ea 07 cc 3e 57 1c a2 3f 64 47 c2 3d
       0.035391077 0.39849788 1.2664899 0.09486273
000170 17 39 5a 3d ff 5a 88 3e 87 93 a1 3e be fa e1 3e
       0.0532771 0.26631925 0.31557867 0.44136614
000180 fe 17 ba 3f 08 d4 ae 3f e2 43 7d 40 da 24 bf 3f
       1.4538572 1.3658457 3.9572682 1.4933121
000190 a3 c3 de 3e c5 7e 37 3e b8 e9 b6 3f ce 16 8f 3e
       0.43508634 0.17919452 1.4290075 0.27947086
0001a0 3d ac cc 3e fa 3f 7c 3f ea 07 fb 3d a0 f2 f3 3e
       0.39975157 0.9853512 0.12257369 0.47646046
0001b0 3d f7 4c 3f eb b2 e8 3e d8 81 8e 3d 48 8b 86 3f
       0.80064756 0.45449004 0.069583595 1.0511255
0001c0 98 f1 da 3e b4 02 57 3e b9 7b 24 3e 63 ce 54 3f
       0.42762446 0.20997125 0.16062821 0.8312742
0001d0 bb e4 6b 3d f1 50 53 3e 7f 58 74 3e 45 26 bd 3e
       0.05759118 0.20636345 0.23861884 0.3694326
0001e0 e4 30 99 3e dd 2d 57 3d 0d ce b7 3f 79 70 83 3e
       0.29920113 0.052533973 1.4359757 0.25671747
0001f0 5a 1f 10 3f 63 e3 c5 3d 1f dd a4 3e 61 37 5d 3f
       0.5629784 0.09662511 0.32199952 0.86412627
000200 0d 14 2f 40 8a fa 15 40 58 80 f1 3e 78 54 68 3e
       2.7355988 2.3434167 0.4716823 0.22688472
000210 62 ef 87 3e 19 a3 5f 3d 6b be 21 3d 8d a6 90 3e
       0.26549822 0.0545989 0.039488237 0.28252068
000220 6a 7a 5b 3f 5b 87 30 3f df f6 f5 3d dd 74 09 41
       0.85733664 0.68956536 0.120099775 8.591031
000230 49 17 a9 3e 17 ff 9e 3f 82 e3 20 3e f1 14 8c 3e
       0.33025578 1.2421597 0.15711787 0.27359727
000240 74 e7 72 3f 6a 41 9f 3f 79 76 37 3f 5a 7c d1 3f
       0.9488442 1.2441838 0.7166515 1.6366074
000250 b3 9c 2c 41 21 57 c3 3e aa 39 18 3e 6b e6 71 3e
       10.788257 0.38152412 0.14865747 0.23623054
000260 c6 93 4f 3f c8 d5 80 3f e8 e3 4f 3d 68 73 ed 3f
       0.8108486 1.0065241 0.050754458 1.8550844
000270 cd fc 8e 3f eb b5 ab 3f de 66 ff 3c 28 f4 f2 3e
       1.1170899 1.3414892 0.03117698 0.474519
000280 b8 49 4b 40 14 7a 44 3e 74 10 f4 3e c8 e0 20 3e
       3.1763744 0.19187194 0.47668803 0.15710747
000290 1c ac dd 3e cf 9f 47 40 81 ef 9e 3f 6c 15 16 3f
       0.43295372 3.119129 1.2416841 0.5862644
0002a0 86 bc b6 3e b8 2a 9d 3e 30 e5 14 3e ef 4c 34 3d
       0.35690707 0.30696654 0.14540553 0.044018682
0002b0 08 0c a8 3e ca b6 59 3d 0a 15 8c 3f a4 a8 99 3e
       0.3282168 0.053152837 1.0943921 0.30011475
0002c0 3f 0a c1 3e c3 db aa 3f 5b 1e aa 3d 7e d5 21 3f
       0.3770313 1.3348316 0.08306571 0.6321639
0002d0 25 53 8f 40 4c 4b ee 3e 5f 92 84 3e 49 63 37 3f
       4.4788995 0.46541822 0.25892922 0.7163587
0002e0 bd b5 2c 3e b7 8a 16 3f 0f 27 98 3f 72 3c ce 3e
       0.16866203 0.5880541 1.188692 0.4028049
0002f0 fe 66 44 3e 3c a2 a1 3e fc 85 07 3f c6 f1 23 3f
       0.19179913 0.31569088 0.5293882 0.6404079
000300 b4 c0 85 3e e5 6b 99 3e df 48 03 3e ff 50 ce 3f
       0.26123583 0.2996513 0.12820767 1.6118468
000310 fa 0c 91 3e df 57 e4 3e 7b 89 47 3f 9c cd d9 3d
       0.28330213 0.4459829 0.77944154 0.1063492
000320 be 23 d2 3f f0 b7 a9 3d 6e c0 2c 3e 7c df 79 3f
       1.6417158 0.082870364 0.16870281 0.97606635
000330 58 81 fc 40 91 89 13 3e d2 a6 7b 3e 36 a3 2e 3e
       7.890789 0.14407946 0.24575356 0.17054448
000340 ba 00 86 3d 9b 53 35 3e db 8c 27 40 ff 30 d5 3e
       0.06543107 0.17707674 2.6179721 0.41638944
000350 34 5c 01 3f 93 d2 6c 40 be 69 b1 41 1e a6 1d 3f
       0.50531316 3.7003524 22.176632 0.615816
000360 9a ad c3 3f b3 2b c8 3e c1 c4 b2 3e 1e 79 3a 3f
       1.5287354 0.3909584 0.34915736 0.7284106
000370 b9 94 51 3d d0 a2 e0 3c 72 b6 d3 3d ee bd 29 3f
       0.051167224 0.027421385 0.10337533 0.66305435
000380 94 cb 2e 40 bb 00 bf 3e 21 71 be 3d e8 d6 b1 3f
       2.7311754 0.37305245 0.092989214 1.3893709
000390 b2 7a e6 3e 44 b8 be 3e 13 92 e7 3e 33 17 c2 3d
       0.45015484 0.3724996 0.45228633 0.09477081
0003a0 39 0d 38 3e 87 d6 af 3e f0 bf 65 3e 09 90 62 3e
       0.17973794 0.3434336 0.224365 0.22125258
0003b0 37 2c b1 3e 82 d4 94 3f 3c b1 61 3e cf 98 d3 3f
       0.34604046 1.1627352 0.22040266 1.6531008
0003c0 6e b9 d0 3e 17 09 16 3e ec 7d ef 3d 37 0e a2 3d
       0.40766472 0.14651905 0.116939396 0.079128675
0003d0 2c f4 6b 3f 12 57 85 3f bf bb 47 3f 99 e1 32 3e
       0.9216945 1.0417197 0.7802085 0.17468871
0003e0 03 98 80 3e 74 ac a1 3e 64 18 e2 3d 1c d7 41 3e
       0.25115976 0.31576884 0.110398084 0.18929714
0003f0 3c 77 95 3e e4 46 58 3f c4 1e 46 3f 89 93 b4 3e
       0.2919253 0.8448317 0.77390695 0.3526881

features.denseblock1.denselayer1.norm1.weight f4 [256]
000000 f0 3f 84 3f c9 51 3c 3f dd 37 23 3f c0 ce 95 3f
       1.0332012 0.73562294 0.63757116 1.170372
000010 28 c1 c3 3f 43 ee 8b 3f 7a 5c d7 3f 63 41 71 3f
       1.5293322 1.0932087 1.6825097 0.942404
000020 11 87 2c 3f 67 9d 70 3f a2 b9 30 3f 4b 12 52 3f
       0.67393595 0.93990177 0.69033253 0.8205916
000030 90 02 8e 3f 8e ec 82 3f d9 15 83 3f 9a c8 8b 3f
       1.1094532 1.0228441 1.0241042 1.0920594
000040 58 6e 33 3f 45 8e 1c 3f 45 c4 91 3f c1 46 8d 3f
       0.70090246 0.61154586 1.1388022 1.1037217
000050 1c ab 90 3f 0e c1 86 3f f2 04 86 3f 60 5f 9e 3f
       1.1302218 1.0527666 1.0470259 1.2372856
000060 2d a5 a4 3f f6 0d 5a 3f 0d b5 e2 3e 1d 34 18 3f
       1.2862908 0.8517755 0.44278756 0.5945452
000070 fb 17 4f 3f 2d c4 88 3f d6 cc 8a 3f dc 9d 48 3f
       0.80895966 1.0684868 1.0843761 0.78365874
000080 f2 fb f5 3f fe 13 84 3f 01 74 05 3f 86 c4 2c 3f
       1.9217513 1.0318601 0.5213013 0.6748737
000090 45 8e 66 3f 09 f8 61 3f e3 78 50 3f 36 d5 56 40
       0.90060836 0.88269097 0.8143446 3.3567634
0000a0 90 e2 54 3f ed 81 7d 3f a0 fb 7c 3f f6 13 8a 3f
       0.83158207 0.99026376 0.9882145 1.0787342
0000b0 08 e5 e9 3e 06 20 ce 3f 88 05 8f 3f 4c 58 90 3f
       0.4568255 1.6103523 1.1173563 1.1276946
0000c0 b0 00 8e 3f 86 c8 d2 3f e7 60 c3 3f 06 d6 89 3f
       1.109396 1.6467445 1.5263947 1.076844
0000d0 f2 68 8b 3f 62 52 35 3f 20 aa 3d 3f 58 50 99 3f
       1.0891402 0.7082883 0.74087715 1.1977644
0000e0 ba 31 03 3f 7f b1 9d 3f ab 71 6e 3f 2c f2 d8 3f
       0.5124775 1.2319793 0.93142194 1.6948905
0000f0 2d 01 d5 3e 19 e3 9b 3f b4 d9 8a 3f 36 1e 7c 3f
       0.4160246 1.217868 1.0847688 0.984836
000100 13 e2 2a 3f fc 51 86 3f 15 d2 2b 3f 08 9e 4d 3f
       0.6675121 1.049377 0.67117435 0.8031926
000110 00 d0 ed 3f 9c c7 a6 3f 7e d7 75 3f 42 73 89 3f
       1.8579102 1.3029666 0.9603194 1.0738299
000120 8c f9 9e 3f a8 a8 61 3f 1b 91 d3 3f 7e 0c 7a 3f
       1.2419906 0.88147974 1.6528658 0.9767531
000130 68 a6 ab 3f 20 b4 82 3f af 75 79 3f ee 5a 48 3f
       1.3410158 1.021122 0.97445196 0.7826375
000140 d6 b2 9d 3f 04 8c aa 3f 32 6a a5 3f 96 1a 88 3f
       1.2320201 1.3323979 1.2923033 1.0633113
000150 87 3b 62 3f 1d 44 8a 3f 2d 7a 5d 3f 7f 5d 66 3f
       0.8837208 1.0802037 0.8651455 0.89986414
000160 86 59 1b 3f 44 35 56 3f 3b 8e c9 3f 5e c4 22 3f
       0.60683477 0.83675027 1.574653 0.6358088
000170 1d 42 05 3f 22 24 6f 3f 0b f7 87 3f 33 f5 ae 3f
       0.52054006 0.9341451 1.0622267 1.3668579
000180 8f b3 ab 3f 5c b2 0a 40 9a d4 a1 3f a6 94 ad 3f
       1.3414172 2.1671362 1.2643006 1.3560989
000190 52 78 43 3f 38 3a 75 3f a9 53 be 3f 62 1e 96 3f
       0.7635547 0.9579196 1.4869281 1.1728022
0001a0 f8 06 74 3f 61 70 c4 3f ec 54 03 3f be d4 7f 3f
       0.95323133 1.5346795 0.51301455 0.99933994
0001b0 7e c4 9d 3f 4d 3e 6d 3f 3c e5 9e 3f d3 24 e5 3f
       1.232559 0.9267319 1.2413707 1.7901863
0001c0 4c 3a 9e 3f f1 80 58 3f ef 50 b1 3f ba cd 89 3f
       1.2361541 0.8457175 1.3852824 1.0765908
0001d0 24 e3 6d 3f 2d 4e 26 3f be e3 35 3f 92 e9 86 3f
       0.92924714 0.64963037 0.7105063 1.054003
0001e0 ed 51 82 3f a5 7a 27 3f 36 61 b2 3f 87 d2 6c 3f
       1.0181252 0.65421516 1.3935916 0.9250874
0001f0 77 c7 c2 3f 32 ea 1b 3f c9 c8 76 3f cd d0 88 3f
       1.5217122 0.6090423 0.96400124 1.0688721
000200 44 81 de 3f 77 91 ea 3f 51 ea 1f 40 d9 5d 3d 3f
       1.7383199 1.8325642 2.4986765 0.73971325
000210 4c 84 5b 3f f4 7f ca 3e 96 ab 60 3f 60 40 5f 3f
       0.85748744 0.39550745 0.8776182 0.87207603
000220 b4 6b b7 3f 41 89 89 3f b8 8d 0b 3f 03 51 0c 40
       1.4329743 1.0745012 0.5451312 2.1924446
000230 db d1 39 3f be a4 9d 3f fb 7d 7c 3f 13 9a 1d 3f
       0.7258584 1.23159 0.9862973 0.61563224
000240 e2 4a b0 3f 99 c6 8c 3f 3f c3 bc 3f 51 d0 f5 3e
       1.3772852 1.0998107 1.4747084 0.48010495
000250 b1 d6 71 3f d8 f6 7d 3f 59 48 41 3f c2 34 33 3f
       0.9446822 0.9920478 0.7550102 0.7000238
000260 5d ad 81 3f ae ac 6b 3f 8d 90 26 3f ca 1e bd 3f
       1.0131031 0.92060363 0.65064317 1.4775021
000270 1b 3d 13 3f 9a 2c a4 3f 45 c5 15 3f 8a 33 9c 3f
       0.57515115 1.2826111 0.58504134 1.2203228
000280 d2 7f b0 3f 30 9e 9b 3f 33 0c b3 3f 51 5a 80 3f
       1.3789008 1.215765 1.3988098 1.0027562
000290 81 aa 73 3f 57 6f bc 3e 4e 31 9b 3f c3 29 95 3f
       0.95182043 0.36803696 1.2124422 1.165337
0002a0 48 73 82 3f 68 83 87 3f d6 26 0f 3f 42 67 36 3f
       1.0191431 1.0586977 0.55918634 0.7125131
0002b0 17 a7 56 3f 51 7f 25 3f ee e7 9f 3f 97 ab 92 3f
       0.8384871 0.64647394 1.2492654 1.1458615
0002c0 33 24 29 3f 84 97 ff 3f a4 ed 13 3f 4a 19 80 3f
       0.6607086 1.9968114 0.57784486 1.0007718
0002d0 c7 bf 10 40 b7 98 21 3f e4 36 11 3f 14 e8 17 3f
       2.2617052 0.6312365 0.5672438 0.593385
0002e0 e7 67 5b 3f 14 1a a9 3f 66 f2 9e 3f 67 bb 65 3f
       0.8570542 1.3211083 1.2417724 0.8973908
0002f0 e7 e3 8c 3f ef ec b0 3f 2a 29 94 3f 4d 64 9c 3f
       1.100705 1.3822306 1.1575062 1.2218109
000300 e8 da 8b 3f 89 14 5c 3f 8c 5b e7 3e c9 4c 8f 3f
       1.092618 0.85968834 0.45187032 1.1195308
000310 51 ac 6a 3f 2a 44 a8 3f cb ad 9c 3f fe 9e 2f 3f
       0.91669184 1.3145802 1.2240537 0.6860198
000320 d9 5e 1a 3f 84 79 0b 3f 1c 7c 95 3f d9 56 69 3f
       0.60300976 0.54482293 1.16785 0.91148144
000330 49 d7 ed 3f 5b 26 7b 3f d8 f0 15 3f 26 53 82 3f
       1.8581325 0.981054 0.58570623 1.0181625
000340 7d 76 0d 3f b4 d1 39 3f 5b 83 c4 3f 9e 7c 79 3f
       0.55258924 0.72585607 1.5352587 0.97455776
000350 49 d9 ab 3f c2 1f d2 3f 3d c9 55 40 44 b7 7f 3f
       1.3425685 1.6415942 3.3404076 0.99889016
000360 87 78 9c 3f 4d df 56 3f ee 2c fd 3e 1d ab 85 3f
       1.2224282 0.8393448 0.4944834 1.0442845
000370 13 ee 1b 3f 48 2f fc 3e 2a 0d 3e 3f 31 03 6c 3f
       0.6091015 0.49254823 0.74238837 0.9219237
000380 b4 3f 98 3f f7 12 62 3f ba 83 0e 3f fb ce 9b 3f
       1.1894441 0.8831019 0.5566975 1.217254
000390 92 29 97 3f 7a aa 8b 3f 35 0e 61 3f d6 72 ed 3e
       1.1809561 1.09114 0.87912303 0.46376675
0003a0 f7 49 0f 3f 8c b3 50 3f f4 27 74 3f 6a 2c 42 3f
       0.55972236 0.81523967 0.95373464 0.7584902
0003b0 59 8b a5 3f 14 84 88 3f eb 8c 2e 3f 8c 27 ba 3f
       1.293315 1.0665307 0.68183774 1.4543319
0003c0 61 5d 63 3f cf d7 4c 3f 2e 76 e5 3e 48 08 71 3f
       0.8881436 0.800168 0.44816726 0.9415326
0003d0 56 0b 89 3f d1 01 98 3f c8 b3 b7 3f a6 13 6e 3f
       1.0706584 1.1875554 1.435174 0.9299873
0003e0 ba 96 39 3f 76 36 77 3f fe b6 f5 3f 5e b9 2e 3f
       0.72495615 0.96567476 1.919647 0.682516
0003f0 18 61 54 3f 9c ed 9b 3f f8 59 b6 3f 1a 8b 64 3f
       0.82960653 1.2181888 1.4246206 0.8927475

features.denseblock1.denselayer1.norm1.bias f4 [256]
000000 82 16 6f 3e b5 58 8a be fc 33 ea bd 02 aa b2 3d
       0.2334843 -0.27020803 -0.114356965 0.08723833
000010 a7 ab 92 3d e0 32 57 3e 18 70 f3 3d 94 69 6e bd
       0.07161646 0.21015501 0.118866146 -0.058206156
000020 20 cf 98 be ce ee 61 3e 7e ca a6 be d5 3a c5 3e
       -0.29845524 0.22063753 -0.32576364 0.38521448
000030 f3 47 09 bf 3a 2f 23 3e f1 fd 22 3e 68 0c 04 3d
       -0.5362541 0.15935984 0.15917183 0.032238394
000040 0a 68 0f bf 4b a3 6a be 11 ce 9e 3d ad 8f 4b 3e
       -0.56018126 -0.22913854 0.07754148 0.19879027
000050 33 bd 9a 3e d6 ac 77 3e 3d 72 e5 bd 1e ae 60 be
       0.30222473 0.24187025 -0.1120343 -0.2194142
000060 38 c7 12 3e 21 e1 09 be 95 33 83 be b9 3a 87 be
       0.14333808 -0.13464786 -0.2562529 -0.2641199
000070 e3 23 85 be 3e e1 90 bd a2 9f d5 be 72 22 e9 be
       -0.26003942 -0.070742115 -0.41723353 -0.45534092
000080 31 4c d0 3e f2 5e 38 be 42 31 fb be 38 15 ec 3e
       0.4068313 -0.18004969 -0.49061018 0.4610994
000090 9d d5 8b be bf 7f 22 3b 2c 56 65 be 1b 48 25 bd
       -0.27311411 0.002479538 -0.22396153 -0.04035197
0000a0 92 31 45 be a4 a9 2b be 4b 5e 1e 3e dc a6 4c be
       -0.19257191 -0.16763932 0.15465657 -0.19985527
0000b0 ba 97 d0 be 75 af 34 3e 46 3d a5 be 49 2c ba 3e
       -0.40740758 0.17645057 -0.3227331 0.36361912
0000c0 6f 4b bb bb 7d f4 08 3c 6a 56 ec 3e e3 ed 80 3e
       -0.0057157795 0.008359072 0.4615968 0.25181493
0000d0 f9 cc ac 3e cf 8a 0c bf ee 9f b8 be f5 a8 0d be
       0.33750132 -0.54899305 -0.36059517 -0.13833983
0000e0 f1 81 66 be 3b 03 24 bd c3 fb 8e 3e b6 c3 0d bf
       -0.22510506 -0.040042143 0.27926454 -0.55376756
0000f0 f6 b2 d5 be 76 06 1a be 4f 87 0b 3f f3 8a a0 bc
       -0.417381 -0.15041527 0.5450334 -0.019597506
000100 24 d0 a3 be eb dd f7 bc 76 0e 1c be 7b e0 c3 be
       -0.31994736 -0.030257186 -0.15239891 -0.38257203
000110 fa f5 7a 3e 5b 34 99 be 67 f9 7a bd 77 ca 8b 3c
       0.24507895 -0.29922757 -0.061273005 0.017064316
000120 70 98 f2 bd 0b 99 8e 3e 01 92 1e 3f e8 b2 b5 3d
       -0.118454814 0.27851138 0.61941534 0.08872014
000130 bd e3 2a be 99 03 25 be 0b 5f 8a bd a4 cd 76 3c
       -0.16688438 -0.16114654 -0.06756409 0.015063677
000140 ad fc 72 bd 2a 12 8b be 14 d5 41 3e 73 51 ed 3d
       -0.059323 -0.27162296 0.18928939 0.11587801
000150 04 73 14 3e 25 27 b1 be 0b f7 98 be 2f 87 18 bd
       0.14497 -0.34600177 -0.2987598 -0.037238296
000160 d0 81 40 be 42 a4 36 be 3a 6f 21 bf 7d aa 5b 3d
       -0.1879952 -0.17836097 -0.63060343 0.053629387
000170 36 b3 70 be d0 97 91 bc 95 3c 8f 3d a8 ce 0f be
       -0.23505864 -0.017772585 0.06993977 -0.14043677
000180 bb 4a d0 bd 4d c6 1d bf 62 51 17 3e 6e 27 5c ba
       -0.10170504 -0.6163071 0.14777139 -0.00083982095
000190 46 2a 30 3d ca ec 2a bf 87 26 d8 3e b8 8f 59 be
       0.043009065 -0.6676756 0.42216894 -0.2124623
0001a0 f0 1d 5a be f2 bc fc be 39 e5 14 be 3e 5f 15 3d
       -0.21300483 -0.49362904 -0.14540567 0.036467783
0001b0 5e 77 5e 3e e1 e7 0c be 31 b2 07 be 72 a7 c7 be
       0.21725222 -0.1376033 -0.13251568 -0.38994938
0001c0 f0 92 8a be b4 49 8d be ed 35 ff be a1 9c 2a be
       -0.2706523 -0.27595294 -0.4984583 -0.16661312
0001d0 e1 95 42 be 92 7c a3 3c 41 40 a3 bd 83 f9 ab bd
       -0.19002487 0.01995686 -0.0797124 -0.083972
0001e0 26 29 38 bf b8 d8 77 be b3 d0 b3 bb 76 fe 45 be
       -0.7193779 -0.24203765 -0.0054875254 -0.1933535
0001f0 2f 80 a4 bd 4b b3 cb bd 48 e6 d7 be 83 48 0a bd
       -0.080322616 -0.09946307 -0.42167878 -0.03376056
000200 7d c0 f3 be e2 6a 4e be 98 ec e3 bf b0 47 5d be
       -0.47607794 -0.2015796 -1.7806578 -0.21609378
000210 d9 79 dd be f5 b4 89 be 17 5b 2a be 34 3e d2 3e
       -0.43257025 -0.26895872 -0.1663631 0.41063082
000220 ad 27 fb 3b 41 d7 f6 be df 62 c0 be 88 1d b3 3d
       0.007664642 -0.482111 -0.37575433 0.08745867
000230 4f a8 06 bf 92 23 e3 bd ad f4 96 3d aa 49 f1 be
       -0.5260057 -0.11090769 0.07370887 -0.47126514
000240 d4 23 48 bc 13 1f 09 3d 10 63 0f bf a3 61 c0 be
       -0.012215573 0.0334769 -0.5601053 -0.3757449
000250 94 66 f6 bd b9 cf 89 3e a2 d0 52 be 15 5d be be
       -0.12031284 0.26916292 -0.205874 -0.3718039
000260 bf 94 66 bd 86 b8 e8 bd f2 0a ad be 1c fd 31 3e
       -0.0562942 -0.1136332 -0.33797413 0.1738171
000270 dd 12 f7 bc c8 d1 29 3e 96 c1 94 be ef 99 35 3e
       -0.030160362 0.16583931 -0.29053944 0.17734502
000280 09 f6 24 be 6f be b5 be 6b 31 f4 3d a8 16 86 bd
       -0.1610948 -0.35496852 0.11923488 -0.0654729
000290 8e 3d de 3d b3 a0 a3 be 02 7b f3 bb a6 e3 b8 3e
       0.108515844 -0.3195854 -0.007430435 0.36111182
0002a0 a2 64 cd be 7f c5 75 3e 29 35 93 be 9c 26 88 be
       -0.4011584 0.2400112 -0.28751495 -0.26591957
0002b0 cc 32 88 bd be 8b 95 be 25 2e 66 3e ac c7 9d be
       -0.06650314 -0.29208177 0.2247854 -0.308164
0002c0 e3 df 54 be 6d e7 2a bf d7 94 9a be 59 95 6c bf
       -0.20788531 -0.6675938 -0.3019168 -0.92415386
0002d0 15 4f 3f bf b1 e2 29 be 24 ca 8b be 08 38 9e bd
       -0.74730045 -0.16590382 -0.2730266 -0.07725531
0002e0 bc 94 31 bf 12 61 ac 3c a6 69 97 3d 8d 4d 40 3e
       -0.69367576 0.02104238 0.07393198 0.18779583
0002f0 b3 bb 87 3d c2 19 dc be 5f 4c 64 3e 20 df 69 3d
       0.06627598 -0.42988402 0.22294758 0.057097554
000300 76 b9 8a 3d 0b 20 e1 bd 3c bf ce be 9e 50 1f be
       0.06773655 -0.1099244 -0.40380275 -0.15558097
000310 94 f0 94 bd 73 9f 6b 3d 80 6a ec 3e cb a9 2a be
       -0.07272449 0.05752511 0.46175003 -0.16666333
000320 8d ab 3d 3d 09 1b 90 be 66 78 c0 be 48 81 20 3e
       0.04630618 -0.28145626 -0.37591857 0.15674317
000330 94 08 e4 3d 9a 1b a7 bc 75 37 ce be 6a 0b 2f 3d
       0.11134449 -0.020398904 -0.40276685 0.042735495
000340 f7 ba ec bd 67 fc 54 be 8a de cb be 8e 9a c6 be
       -0.11559098 -0.20799409 -0.3981822 -0.3878979
000350 94 d4 70 be ef cd b5 3d 4c 08 7d 3e e0 77 19 be
       -0.23518592 0.08877169 0.24710196 -0.14987135
000360 e0 ba 9f be 18 f0 a9 3c 39 6d 85 bd 31 e6 61 3e
       -0.31197262 0.020744368 -0.06514973 0.22060467
000370 cb f6 f1 be 57 75 50 be b0 83 a4 bd a1 cc 2c 3d
       -0.472586 -0.20357262 -0.0803293 0.042187337
000380 ac be 1a 3f 62 c4 24 3e 96 06 2b 3e 8a 1d 09 bd
       0.6044719 0.16090539 0.16701731 -0.033475436
000390 0d bb 6d bd c7 73 b4 3d 58 ee c2 bd 3c 9f cd bd
       -0.058039714 0.08811145 -0.09518117 -0.10040137
0003a0 e8 cc 83 bd d3 d5 8a 3d d0 56 ef bd d7 3e d8 3a
       -0.06435567 0.06779065 -0.1168648 0.001649822
0003b0 8f 9d e5 be 21 92 cf bc 3c 80 68 bc a1 41 90 bc
       -0.4484677 -0.025338234 -0.01419073 -0.01760942
0003c0 7f 31 f4 bd 5c 20 40 3d f7 05 21 be 04 9a 2f bd
       -0.11923503 0.04690586 -0.15724932 -0.04287149
0003d0 ed 42 5f bc 7a 6f 49 3f 75 16 ad 3c 2f 8f 94 be
       -0.013626796 0.78685725 0.021128872 -0.2901549
0003e0 c3 54 dd be dc 5b bf bc d8 fb 4d be 07 30 1b bf
       -0.4322873 -0.023359232 -0.20115602 -0.6062016
0003f0 ab 81 46 be bd 9a b4 3e 86 06 89 3e 77 c7 91 bd
       -0.19385402 0.35274306 0.2676279 -0.07118123
