models/3ddensenet_indel.pt (torch, 825128 bytes, 53 tensors)

features.conv0.weight f4 [256, 11, 3, 1, 1]
0	0x3e0520b6	0.1300076
1	0x3ef23205	0.47303787
2	0xbee0eabf	-0.43929097
3	0xbf3a96ee	-0.7288655
4	0xbf56ca08	-0.83902025
5	0x3d8385c2	0.06421997
6	0x3f2512d3	0.6448185
7	0xbed903a2	-0.42385584
8	0xbdc835a6	-0.097758576
9	0x3da736bb	0.08164736
10	0x3d77775f	0.060416576
11	0xbe2fcb70	-0.17167449
12	0xbe431402	-0.19050601
13	0xbe73f4df	-0.2382388
14	0xbe6122af	-0.21985887
15	0xbd66afc2	-0.05631996
16	0xbed09d58	-0.40745044
17	0x3dfcec39	0.123497434
18	0xbdabb1d7	-0.0838353
19	0x3daddd9e	0.08489536
20	0x3d1de472	0.03854794
21	0xbe808bea	-0.25106746
22	0xbe0377db	-0.1283869
23	0xbe8c77cf	-0.27435157
24	0xbeceadeb	-0.40367064
25	0x3ebbb926	0.36664695
26	0xbb8b0c0c	-0.0042433795
27	0xbf5627c9	-0.8365446
28	0x3f309d36	0.68989885
29	0xbf1b3391	-0.6062556
30	0xbddcd016	-0.10781877
31	0xbf034354	-0.5127461
32	0xbe9cd3a8	-0.3063023
33	0xbcbfbb5b	-0.023404768
34	0xbf3f021d	-0.746126
35	0xbdb8a18f	-0.0901519
36	0x3dd08470	0.101815104
37	0x3d262b33	0.04056854
38	0xbb1cf3ca	-0.002394902
39	0xbe3a6156	-0.18201193
40	0xbe2dcad8	-0.1697191
41	0xbe7e8b9e	-0.24857947
42	0xbef95c9a	-0.48703462
43	0xbe9c68a9	-0.305486
44	0xbf2a118a	-0.6643301
45	0xbd212018	-0.039337248
46	0xbf8119e5	-1.0086027
47	0x3efcd8d6	0.49384183
48	0xbf33593d	-0.7005804
49	0xbeacf8ea	-0.33783656
50	0xbeb71338	-0.3575685
51	0xbd35924a	-0.044328965
52	0xbf2d0775	-0.67589504
53	0xbe8c966a	-0.27458507
54	0xbeb3cf74	-0.35119212
55	0xbf39b496	-0.7254118
56	0xbe85b913	-0.26117763
57	0xbe385499	-0.18001021
58	0xbcbea74d	-0.023273135
59	0xbe8288eb	-0.25495085
60	0xbde2494f	-0.11049139
61	0xbf7a9b8f	-0.97893614
62	0xbd05ca32	-0.03266353
63	0xbed16052	-0.408938
64	0xbe4ff492	-0.2030814
65	0xbc9a8109	-0.018860357
66	0x3e9c1983	0.30488214
67	0xbf3f7d45	-0.7480052
68	0xbf80106a	-1.0005009
69	0xbe306aa7	-0.17228185
70	0x3ec9a098	0.39380336
71	0x3e5878ec	0.21139878
72	0xbdadd357	-0.084875755
73	0xbe83be4d	-0.25731125
74	0xbda67250	-0.08127272
75	0xbcd22466	-0.025652122
76	0xbe255629	-0.16146149
77	0xbe0769f8	-0.13224018
78	0xbeb6f5e3	-0.35734472
79	0x3e88745c	0.26651275
80	0xbe757a77	-0.23972498
81	0xbe5ab9c9	-0.21359934
82	0xbdc64a7c	-0.096821755
83	0x3c6ef1d5	0.014584024
84	0xbdb1fd44	-0.08690885
85	0xbecf79fc	-0.40522754
86	0x3d1b1733	0.03786392
87	0xbcc6a0f2	-0.024246667
88	0xbd519940	-0.05117154
89	0x3d46d117	0.048539247
90	0xbdf6de77	-0.120541506
91	0xbdc9920e	-0.09842311
92	0xbdf9618f	-0.12176811
93	0xbdc3f97d	-0.095690705
94	0xbdb41364	-0.08792761
95	0xbe763038	-0.24041831
96	0xbe39756c	-0.18111199
97	0x3d7851bc	0.060624823
98	0x3de99b46	0.11406569
99	0xbe9c37b2	-0.30511242
100	0xbdee389a	-0.1163189
101	0xbea229fe	-0.31672662
102	0xbf8c6418	-1.0968046
103	0xbf93bc16	-1.1541774
104	0xbe0ac758	-0.13552606
105	0x3f3c86a7	0.73642963
106	0xba51f96b	-0.00080098835
107	0xbe916bff	-0.28402707
108	0xbf396ffd	-0.72436506
109	0xbe306ae8	-0.17228281
110	0xbec10e28	-0.37706113
111	0xbe1aea7a	-0.15128508
112	0xbd153612	-0.03642852
113	0x3d482779	0.04886577
114	0xbed5d069	-0.41760567
115	0x3e8250b3	0.25452194
116	0xbf1ab831	-0.60437304
117	0x3d9b0d73	0.075709246
118	0xbec1b9c9	-0.37837055
119	0xbe80be75	-0.25145307
120	0x3ca4d8fe	0.020123001
121	0xbd920f1e	-0.071317896
122	0x3bb19469	0.005419303
123	0x3f3066f8	0.6890712
124	0x3e990e36	0.29893655
125	0x3eb26fe9	0.34851006
126	0xbea7fdb7	-0.32810757
127	0xbbce74e7	-0.006300557
128	0xbe2aad1d	-0.166676
129	0x3e1bb04e	0.15203974
130	0x3f06a9f0	0.52603054
131	0xbeee0754	-0.46489966
132	0xbf0f1c6e	-0.55902755
133	0xbe0d00f9	-0.13769902
134	0x3ef9743a	0.48721486
135	0xbf06dcbc	-0.52680564
136	0xbda0bbaf	-0.07848298
137	0x3f4b8cc7	0.79511684
138	0x3e31c6e6	0.1736103
139	0xbe91f68f	-0.28508422
140	0xbe5c2a9d	-0.2150063
141	0x3d92fa39	0.071766324
142	0xbea7a0f9	-0.3274
143	0xbf31d105	-0.69459563
144	0xbe9b06cb	-0.3027862
145	0xbdea9694	-0.11454502
146	0x3edffa9d	0.4374589
147	0xbe03f896	-0.12887797
148	0xbe92c3a9	-0.28664902
149	0xbdc22ad2	-0.094808236
150	0xbe706311	-0.23475291
151	0x3dd2b8c2	0.10289146
152	0xbe9377d2	-0.28802353
153	0x3d0da731	0.034583274
154	0xbd9a1630	-0.07523763
155	0x3e30fa48	0.17282975
156	0x3e22f3e2	0.15913346
157	0xbe794e28	-0.2434622
158	0xbfb27f00	-1.3945007
159	0xbdd0a02d	-0.10186801
160	0xbf26c45b	-0.65143365
161	0x3e1f60fa	0.15564337
162	0x3d044ee6	0.032301806
163	0xbd7c4fce	-0.061599545
164	0xbf1a99ec	-0.60391116
165	0xbeaf9d6f	-0.342998
166	0x35041b46	4.921352e-07
167	0x3dd0a0c9	0.10186917
168	0xbf131022	-0.5744649
169	0x3fa56e28	1.2924242
170	0x3e4b8b08	0.19877255
171	0xbedad109	-0.42737606
172	0xbeebad9e	-0.46030897
173	0x3ea952bc	0.33070934
174	0xbd2409f4	-0.040048555
175	0x3daff83f	0.08592271
176	0x3d7f1101	0.062272076
177	0x3e76e75a	0.24111691
178	0xbea99d2a	-0.3312772
179	0xbd3111a5	-0.043229718
180	0xbc41b5b2	-0.011823105
181	0xbdf9886f	-0.12184226
182	0xbe813059	-0.252322
183	0xbf063809	-0.5242925
184	0xbeb3b56d	-0.35099354
185	0x3ccfc0e7	0.025360538
186	0xbe8e32db	-0.27773175
187	0xbe68d119	-0.22736014
188	0xbd566fda	-0.052352764
189	0xbf0f0eed	-0.5588215
190	0xbe6937e8	-0.22775233
191	0x3e2eb0ab	0.17059581
192	0xbddc055c	-0.1074321
193	0xbeb63cfe	-0.35593408
194	0x3dd23e5a	0.10265799
195	0xbc503712	-0.012708442
196	0xbe615618	-0.22005498
197	0x3ec933e9	0.39297417
198	0x3f494bc7	0.7863125
199	0xbf77f8ed	-0.96864206
200	0xbe50154e	-0.20320627
201	0xbeb5b7ef	-0.35491893
202	0xbec5f2bb	-0.3866175
203	0xbe3f7b76	-0.1869944
204	0xbfa39366	-1.2779357
205	0x3c8ccb6a	0.01718684
206	0xbea973e5	-0.33096233
207	0xbdb1b044	-0.08676198
208	0xbed5ed79	-0.4178274
209	0xbe9a5f1b	-0.30150685
210	0xbce0a22b	-0.027421078
211	0xbf465617	-0.7747511
212	0x3e49339a	0.1964859
213	0xbdb0d64c	-0.08634624
214	0xbe4f4f96	-0.20245203
215	0xbedf3df9	-0.4360197
216	0xbd409762	-0.04701937
217	0xbe7cab3c	-0.24674696
218	0xbec8a9c8	-0.39192033
219	0xbf68a2d7	-0.90873474
220	0xbef6976e	-0.48162407
221	0xbf04eecc	-0.51926875
222	0xbecc90b2	-0.39954144
223	0x3d786df9	0.060651753
224	0xbeb696c9	-0.35661915
225	0x3f0fdc93	0.56195945
226	0xbf93c71a	-1.1545136
227	0x3d1f2a45	0.03885867
228	0xbe16c411	-0.14723231
229	0x3f424496	0.75885904
230	0x3ee5971e	0.44841856
231	0x3e332815	0.17495759
232	0x3e09d4c3	0.13460068
233	0xbf2e1f06	-0.6801609
234	0xbe7ab442	-0.24482825
235	0xbd47869c	-0.048712358
236	0xbe25fc21	-0.16209461
237	0x3e2d8200	0.16944122
238	0x3e5929d1	0.21207358
239	0x3e04f670	0.12984633
240	0xbe297e4b	-0.16552083
241	0xbed6a992	-0.41926247
242	0xbf75c46b	-0.96002835
243	0xbc4f79c6	-0.01266331
244	0xbe4fa8b9	-0.20279206
245	0xbe8785da	-0.26469308
246	0xbee694b7	-0.45035335
247	0xbf0776fe	-0.5291594
248	0xbf5bff90	-0.8593683
249	0x3e3b1740	0.18270588
250	0x3e74554d	0.23860665
251	0xbe350e71	-0.1768129
252	0xbe014ba5	-0.12626512
253	0xbda8f20e	-0.08249293
254	0xbcb86b45	-0.022512088
255	0xbd6dbc10	-0.05804068

features.norm0.weight f4 [256]
0	0x3f822434	1.0167298
1	0x3ce8ae00	0.028403282
2	0x3f82db30	1.0223141
3	0x3f826b95	1.0189081
4	0x3f92be1e	1.1464269
5	0x3e6e78e8	0.2328831
6	0x3fdc91b4	1.7231965
7	0x3fb49da9	1.4110614
8	0x3f7ef217	0.9958815
9	0x3f76241b	0.9614884
10	0x3f802938	1.0012579
11	0x3f8ccaad	1.0999352
12	0x3f90ef02	1.1322939
13	0x40326403	2.7873542
14	0x3fa37ea1	1.2773019
15	0x400b6fb4	2.1786928
16	0x3f7f3ac5	0.9969905
17	0x3f804696	1.0021541
18	0x3f7d15e2	0.98861516
19	0x3f7e0b37	0.9923586
20	0x3f2f1184	0.683861
21	0x3f7f49cf	0.99722
22	0x3f92970a	1.1452343
23	0x3f291eb9	0.66062504
24	0x3f8433b2	1.0328276
25	0x3f8801cf	1.0625552
26	0x3f48b853	0.78406256
27	0x3f1f82ae	0.62308776
28	0x3f7fff50	0.9999895
29	0x3fc3f216	1.5308254
30	0x3f649aae	0.8929852
31	0x3f80416b	1.0019964
32	0x3f7aaff1	0.97924715
33	0x3f3b39cd	0.7313507
34	0x3f7e682b	0.993777
35	0x3f7fed67	0.9997162
36	0x3e4ed426	0.20198116
37	0x3f5bb8ba	0.85828745
38	0x3f79c61b	0.9756791
39	0x3f8a1ca7	1.0789994
40	0x3f8055f6	1.0026233
41	0x3fabc89f	1.34206
42	0x3f8f7bc0	1.120964
43	0x3fa2aa64	1.2708249
44	0x3f8061a3	1.0029796
45	0x3fd3ae63	1.6537594
46	0x3f8124df	1.0089377
47	0x3f7eec8c	0.9957969
48	0x3fa877fb	1.3161615
49	0x3f73851f	0.95125
50	0x40386896	2.8813834
51	0x406a6aa8	3.6627598
52	0x3f7f4d33	0.9972717
53	0x3f68bb7b	0.9091107
54	0x3f80172b	1.000707
55	0x3f855dc9	1.0419246
56	0x3f800c6d	1.0003792
57	0x3f81db08	1.0144968
58	0x3f4589c2	0.77163327
59	0x3f82a557	1.0206708
60	0x3f7fcc09	0.9992071
61	0x3faa9184	1.3325658
62	0x3eb1d845	0.34735313
63	0x3fa2d5ae	1.272146
64	0x3f64a19d	0.893091
65	0x3f834acc	1.0257201
66	0x3fa806d4	1.3127084
67	0x3f7c2beb	0.98504514
68	0x3f5c8d5d	0.86153203
69	0x3fa7fbf6	1.3123767
70	0x4026a9c7	2.6041124
71	0x3f9680a0	1.1758003
72	0x3f7f7673	0.99790114
73	0x3f91bb2b	1.1385244
74	0x3f832507	1.0245675
75	0x3f802db1	1.0013944
76	0x3f0fb7a6	0.561396
77	0x3f79d918	0.97596884
78	0x3f2d982e	0.6781033
79	0x3f7c8454	0.98639417
80	0x3f8fc432	1.1231749
81	0x3f7161bc	0.94289756
82	0x3f8ab536	1.0836551
83	0x3fb52471	1.4151746
84	0x3f9ed1be	1.2407758
85	0x3fc83ffa	1.5644524
86	0x3f79a133	0.97511595
87	0x3e7cb6fd	0.2467918
88	0x3f88340d	1.0640885
89	0x3f8a1303	1.0787052
90	0x3f472ffd	0.778076
91	0x3f7ec830	0.9952421
92	0x3f7fac9b	0.9987275
93	0x3f5a83d5	0.8535741
94	0x3f8e4b5e	1.111675
95	0x3f865522	1.049473
96	0x3f8fa39f	1.1221808
97	0x3e5db2d7	0.21650253
98	0x3f7ffe07	0.9999699
99	0x3f67d11d	0.90553457
100	0x3f850b3f	1.0394057
101	0x3ff5e7b2	1.9211333
102	0x3fe36ad5	1.7766978
103	0x3f9ddcc7	1.2333001
104	0x3fd7ca58	1.6858625
105	0x3fd71c3d	1.6805493
106	0x3f9e6a19	1.2376128
107	0x3f99c16a	1.201215
108	0x3f800ef9	1.0004569
109	0x3f7a1299	0.9768463
110	0x3f803bc8	1.0018244
111	0x3f97bfe1	1.1855432
112	0x3f6c3295	0.9226468
113	0x3f7e7398	0.9939513
114	0x3f7ad51f	0.97981447
115	0x3f8a6f21	1.0815164
116	0x3f75eed7	0.96067566
117	0x3f7fda14	0.99942136
118	0x3f7fdace	0.99943244
119	0x3fae6291	1.362383
120	0x3f87478d	1.056871
121	0x3fa40ec4	1.2817006
122	0x3f89203d	1.0712963
123	0x3f73ad19	0.95186
124	0x3f7fecf3	0.9997093
125	0x3f4159ef	0.7552785
126	0x3f7e9f3e	0.99461734
127	0x4007e35b	2.1232517
128	0x3fa0bc7c	1.2557521
129	0x3f97c502	1.1856997
130	0x3f6aea5f	0.9176387
131	0x3f3fc0e2	0.7490369
132	0x3f7d05d1	0.98837
133	0x3f7ec0b5	0.995128
134	0x3f8386a0	1.0275459
135	0x3f86c9fc	1.0530391
136	0x3f855c4b	1.041879
137	0x3f744ee4	0.9543288
138	0xbf68ed3f	-0.9098701
139	0x3f80ce9b	1.0063051
140	0x3f83bbdd	1.0291706
141	0x3f23eec6	0.64036214
142	0x3f80a8e3	1.005154
143	0x3fcb07ee	1.5861795
144	0x3fbc6570	1.4718456
145	0x3f47758b	0.7791373
146	0x3fa14de2	1.2601893
147	0x3f0c01b0	0.54690075
148	0x3f813ed8	1.0097303
149	0x3f7efde7	0.99606174
150	0x3f2ed940	0.6830025
151	0x3f807421	1.003544
152	0x3fd74309	1.6817333
153	0x3f83b8c3	1.029076
154	0x3f770381	0.9648972
155	0x3f8275a5	1.0192152
156	0x3f8ba1ba	1.090873
157	0x3f8499ea	1.0359471
158	0x3f7ff9ca	0.9999052
159	0x3f88ea92	1.0696585
160	0x3f7bd920	0.9837818
161	0x3f45d350	0.7727556
162	0x3f81163d	1.0084912
163	0x3fa47999	1.2849609
164	0x3f8834a2	1.0641062
165	0x3f288726	0.6583122
166	0xbf1bf063	-0.60913676
167	0x3f8194b2	1.0123503
168	0x3f69d14b	0.9133498
169	0x3f7fb468	0.99884653
170	0x3f877b88	1.0584574
171	0x3f41ac54	0.75653577
172	0x3f7fe92b	0.9996516
173	0x3f801179	1.0005332
174	0x3f487319	0.78300625
175	0x3fd69f31	1.6767331
176	0x3f7cdbf5	0.9877313
177	0x3f8399b6	1.0281284
178	0x3f7d1d86	0.98873174
179	0x3f803acf	1.0017947
180	0x3fc346da	1.5255997
181	0x3f858ee3	1.043423
182	0x3f91b832	1.1384337
183	0x3f803c37	1.0018376
184	0x3f7ef90f	0.99598783
185	0x3f8493de	1.0357625
186	0x40099b4b	2.1501033
187	0x3f8d6d07	1.1048898
188	0x3f7fc2b2	0.99906456
189	0x3f811b62	1.0086482
190	0x3f8a4db1	1.080496
191	0x3f801938	1.0007696
192	0x3fd8e17c	1.6943812
193	0x3f902901	1.1262513
194	0x3f7f3408	0.9968877
195	0x3f592748	0.84825563
196	0x3f942195	1.1572748
197	0x3f88e21d	1.0694004
198	0x3fe5fce6	1.7967803
199	0x3f7ff96e	0.99989974
200	0x3f620f1b	0.883043
201	0x3f7fe260	0.99954796
202	0x3f808de4	1.0043302
203	0x3fc19a34	1.5125184
204	0x3f8e062b	1.1095632
205	0x3f834298	1.0254698
206	0x3f781722	0.969103
207	0x3e68d7bc	0.22738546
208	0x3f7f6b62	0.9977323
209	0x3f05debf	0.5229301
210	0x3f7e9228	0.99441767
211	0x3f11c7a5	0.5694526
212	0x3f21a114	0.6313641
213	0x3f23ae2e	0.6393765
214	0x4011467b	2.2699268
215	0x3f8c4b8c	1.0960555
216	0x3f7ee394	0.99566007
217	0x3f85ef76	1.0463703
218	0x3fa40248	1.2813196
219	0x3f264086	0.64942205
220	0x3f812119	1.0088226
221	0x3f7fdd82	0.9994737
222	0x3f87e879	1.061782
223	0x3f872012	1.0556662
224	0x3f982a11	1.1887838
225	0x3f7e92ee	0.99442947
226	0x3f87170a	1.0553906
227	0x3ffe595b	1.9871019
228	0x404b18b7	3.1733835
229	0x3fc73a72	1.5564711
230	0x3f461c10	0.7738657
231	0x3fa16f87	1.261216
232	0x3f7f180e	0.9964608
233	0x3f804261	1.0020257
234	0x3f734de1	0.9504071
235	0x3f7dd743	0.9915659
236	0x3f8f4ae9	1.1194736
237	0x3f498f66	0.78734434
238	0x3f961336	1.1724613
239	0x3f8008f7	1.0002736
240	0x3fa1bb1c	1.2635226
241	0x3f7a42a8	0.9775796
242	0x3f7ffc28	0.99994135
243	0x3f72e590	0.94881535
244	0x3f88f3ef	1.0699443
245	0x3fdc830a	1.722749
246	0x3f80d04f	1.0063571
247	0x3fa1b414	1.263308
248	0x3f829436	1.020148
249	0x3f8fde28	1.1239672
250	0x3f7f97e0	0.9984112
251	0x3fc183cf	1.511835
252	0x3f8018a6	1.0007522
253	0x3f8f8ab8	1.1214209
254	0x3f84a140	1.036171
255	0x3f876dd8	1.0580397

features.norm0.bias f4 [256]
0	0xbe3b966c	-0.183191
1	0xbfc0dd9b	-1.5067629
2	0x3e9fffc6	0.31249827
3	0x3c89fd6d	0.016844476
4	0xbe028d61	-0.12749244
5	0xbf974102	-1.1816714
6	0x3cbc5541	0.022989871
7	0xbea21315	-0.31655183
8	0xbdc408d7	-0.095719986
9	0x3e9e221c	0.30885398
10	0x3b2af3d5	0.0026085277
11	0x3e533c7b	0.2062854
12	0xbfeac5b9	-1.834159
13	0xc0127467	-2.2883546
14	0xbe5e5856	-0.21713385
15	0xbeccec6c	-0.40024126
16	0xbda30b71	-0.07961167
17	0x3e15ea5b	0.14640181
18	0xbe306de9	-0.17229427
19	0xbe076c2d	-0.1322486
20	0xbf46f7f9	-0.77722126
21	0x3da35e94	0.07977024
22	0x3b6b08fb	0.0035863507
23	0xbf45991d	-0.7718676
24	0x3d3e6448	0.046482354
25	0xbe680d63	-0.22661357
26	0xbf25b8a7	-0.6473488
27	0xbf852347	-1.0401391
28	0x3b7cce3a	0.003857507
29	0xbe8df290	-0.27724123
30	0xbeeb9e15	-0.46019045
31	0x3b5030b0	0.0031767301
32	0x3f097b31	0.537036
33	0xbf38b80a	-0.7215582
34	0xbdefbb3e	-0.117056355
35	0x3d0a740d	0.03380208
36	0xbf9afe60	-1.2108879
37	0xbf05f3ca	-0.5232512
38	0xbe6b49a0	-0.22977304
39	0x3a4eaff3	0.0007884495
40	0x3bca88d7	0.0061808634
41	0xbfb8338e	-1.4390733
42	0xbdccd3cf	-0.10001337
43	0xbdd188fd	-0.102312066
44	0x3ca870ae	0.020561542
45	0xbe4c4eaf	-0.1995189
46	0x3d9b1e0b	0.075740896
47	0xbdd39a1d	-0.10332129
48	0xbfd699a6	-1.676564
49	0x3eb03f86	0.34423465
50	0xbf1a1bbe	-0.6019858
51	0xbfb47db6	-1.4100864
52	0xbdabc391	-0.08386911
53	0xbf1f63fe	-0.6226195
54	0xbd34f1a2	-0.04417575
55	0xbba1c67f	-0.0049369927
56	0xbc073051	-0.008251266
57	0x3e1345ee	0.14382145
58	0xbf99448f	-1.1974047
59	0x3e852ba2	0.26009852
60	0x3dd8f139	0.105928846
61	0xbd6c7d62	-0.057736762
62	0xbfcc9aa3	-1.5984691
63	0xbe29ae03	-0.16570286
64	0xbeebf5d8	-0.46086
65	0x3ebb3245	0.3656179
66	0xbe853638	-0.26017928
67	0xbe337d84	-0.17528349
68	0xbf667798	-0.90026236
69	0xbdb835d7	-0.08994644
70	0x3ff1bea7	1.8886307
71	0x3e0e0d38	0.1387223
72	0x3d8bf7f7	0.06834405
73	0xbe06bbd4	-0.13157588
74	0x3e85cae2	0.2613135
75	0x3cb98179	0.022644745
76	0xbf9f87b4	-1.2463288
77	0xbe65c028	-0.22436583
78	0xbf4a8640	-0.791111
79	0xbe32ab8c	-0.17448252
80	0xbd0e2eef	-0.034712728
81	0x3f01fa4d	0.50772554
82	0xbea587a9	-0.32330063
83	0x3f526b5e	0.8219508
84	0xbea843f9	-0.3286436
85	0xbeabf1f3	-0.3358303
86	0xbe8c6375	-0.2741963
87	0xbf9786b5	-1.1837984
88	0x3e283774	0.16427404
89	0xbd6b2b81	-0.057414535
90	0xbf913181	-1.1343232
91	0xbe0a36e1	-0.13497497
92	0xbd5ecbe3	-0.05439366
93	0xbf2617ab	-0.64879864
94	0xbea903a4	-0.3301059
95	0xbd505f26	-0.05087199
96	0x3e67c10d	0.22632237
97	0xbf9278cf	-1.1443118
98	0xbcaaf51a	-0.020868827
99	0x3f13bc31	0.5770903
100	0xbd4cdc2c	-0.05001466
101	0xbf279895	-0.65467197
102	0xbeb564e8	-0.35428548
103	0xbe64547b	-0.22297852
104	0xbf957b1c	-1.1678195
105	0xbf7cf9ce	-0.9881867
106	0xbdbd1e4f	-0.092342965
107	0xbe6534d9	-0.22383441
108	0x3dd1b6da	0.10239954
109	0x3eb89fe7	0.36059496
110	0xbcf8cc92	-0.030370984
111	0xbe6ead63	-0.2330833
112	0xbef38527	-0.47562525
113	0xbe142bd0	-0.14469838
114	0xbeb0766f	-0.34465358
115	0xbe366bc4	-0.17814547
116	0xbe9220e0	-0.28540707
117	0x3d786c76	0.06065031
118	0x3e3eb7fc	0.18624872
119	0xbe210915	-0.15726121
120	0x3cb5c5ba	0.02218901
121	0xbed35068	-0.41272283
122	0x3d991e1d	0.07476447
123	0xbea214e5	-0.31656566
124	0xbe790693	-0.24318914
125	0xbf6156b5	-0.8802293
126	0xbe02ba75	-0.1276644
127	0xc003bc78	-2.0583782
128	0xbff8d353	-1.9439491
129	0xbc876e61	-0.016532125
130	0xbf1cd01a	-0.6125504
131	0xbf2ffaed	-0.6874226
132	0xbe1e7540	-0.15474415
133	0xbdd41329	-0.10355217
134	0x3d84f50e	0.06492053
135	0x3de2274b	0.11042651
136	0x3d93ca06	0.07216267
137	0x3ed90623	0.42387494
138	0xbf9fad0a	-1.2474682
139	0xbd4ea1ea	-0.050447382
140	0x3e9cb76d	0.30608693
141	0xbf67ba4a	-0.9051863
142	0x3dd46d0d	0.10372362
143	0xbdc7fc73	-0.09764948
144	0xbf9a749e	-1.2066839
145	0xbf5f4eed	-0.87229806
146	0xbe14bdf0	-0.1452558
147	0xbf93358f	-1.150072
148	0x3e41d1bb	0.18927662
149	0x3dbe2039	0.0928349
150	0xbf3e7789	-0.74401146
151	0x3c26dd9f	0.0101846745
152	0xbe3ec3d3	-0.18629389
153	0x3e8d165a	0.27556115
154	0x3f012ac4	0.5045588
155	0x3b08100b	0.0020761515
156	0xbeda4a35	-0.4263474
157	0x3cb0c9f5	0.021580676
158	0x3d24a465	0.04019584
159	0x3d902459	0.07038183
160	0xbfc88302	-1.566498
161	0xbf44435e	-0.76665294
162	0xbdaf23dd	-0.08551762
163	0xbcc62a1e	-0.024190005
164	0xbd712d8c	-0.058881328
165	0x3f73d81e	0.95251644
166	0xbfa54131	-1.291052
167	0xbee9396f	-0.4555163
168	0xbf6169d8	-0.8805213
169	0x3d8ba98a	0.068194464
170	0xbd7d5eb3	-0.06185789
171	0xbf3772e0	-0.7165966
172	0x3d04b247	0.03239658
173	0xbcafec3d	-0.021474952
174	0xbf2d5009	-0.6770025
175	0xbfee59e1	-1.8621179
176	0xbe9befd3	-0.3045641
177	0x3dc91e3b	0.09820219
178	0xbe2b5e7d	-0.16735263
179	0xbe34336f	-0.17597745
180	0xbc1f1499	-0.009709501
181	0xbdf88b7c	-0.121359795
182	0xbe8a6b7a	-0.27035123
183	0x3dafd518	0.08585566
184	0xbdc2da68	-0.09514314
185	0xbdbb42a9	-0.09143574
186	0xbf0236f4	-0.508651
187	0xbe91bb20	-0.28463078
188	0xbd6a7633	-0.05724163
189	0xbdc4313f	-0.095797054
190	0xbdee0bf7	-0.11623376
191	0xbc6aca8c	-0.0143305175
192	0xbf217594	-0.63070035
193	0xbe0c9bd0	-0.13731313
194	0xbdb8082f	-0.08985936
195	0xbf625407	-0.88409466
196	0x3d52e2af	0.051485714
197	0x3e9ed152	0.31019074
198	0xbe8bff79	-0.27343348
199	0xbc955762	-0.018230144
200	0xbf4a706c	-0.7907779
201	0xbd18fc71	-0.037350122
202	0x3d34eac4	0.044169202
203	0x3e83296b	0.25617537
204	0x3ee112a3	0.4395953
205	0x3e896e55	0.2684199
206	0xbe841f04	-0.25804913
207	0xc02ca6b2	-2.6976743
208	0xbd940a4c	-0.072285265
209	0xbf8a0b9e	-1.0784795
210	0xbe0d047e	-0.13771245
211	0xbf71ac88	-0.94403887
212	0xbfdccbc4	-1.7249684
213	0xbf694542	-0.91121304
214	0xc01523b7	-2.3303049
215	0xbf1a459e	-0.6026248
216	0x3dcdd7e2	0.10050942
217	0xbd6e9b4e	-0.05825358
218	0xbeb83533	-0.35978088
219	0xbf4c5aad	-0.7982586
220	0x3e1a0453	0.15040712
221	0xbd539515	-0.051655848
222	0x3d67c21a	0.056581594
223	0xbe83682b	-0.2566541
224	0x3da60ca1	0.081078775
225	0xbe112031	-0.14172436
226	0x3e59c7e2	0.21267655
227	0xbe9df0ae	-0.30847687
228	0xbf2cb61a	-0.67465365
229	0xbec222cc	-0.37917173
230	0xbf8fbb44	-1.1229024
231	0xbeb19b06	-0.34688586
232	0xbdb15206	-0.08658223
233	0x3c30497d	0.0107597085
234	0xbec80240	-0.39064217
235	0x3e7153be	0.23567101
236	0xbe609c43	-0.21934609
237	0xbf291eb6	-0.66062486
238	0xbd16f36b	-0.036853235
239	0x3c2676f7	0.010160199
240	0xbe148512	-0.14503887
241	0xbe5eb38d	-0.2174818
242	0xbcd53a1f	-0.02602869
243	0xbea49d4e	-0.32151264
244	0xbe20cb13	-0.15702467
245	0xbee068cb	-0.4382995
246	0x3df7b88d	0.12095747
247	0xbe0a0c67	-0.13481294
248	0xbe0d674f	-0.1380894
249	0xbf662c58	-0.89911413
250	0xbde4ddf0	-0.11175144
251	0x3e96e180	0.29468918
252	0xbd24d2ce	-0.0402401
253	0xbe662d53	-0.22478227
254	0x3c8a9baf	0.016919939
255	0xbe678b33	-0.22611694

features.norm0.running_mean f4 [256]
0	0xbe0293c3	-0.12751679
1	0xbee41a9a	-0.44551545
2	0xbe6809ac	-0.2265994
3	0xbe2307c0	-0.15920925
4	0xbe7544ab	-0.23951976
5	0xbdf513bb	-0.11966654
6	0xbec7f1ed	-0.39051762
7	0xbdb04155	-0.08606211
8	0xbcf048db	-0.029331615
9	0xbe3f6fe6	-0.1869503
10	0xbd9756ef	-0.07389628
11	0xbe581529	-0.21101822
12	0xbf23bd82	-0.6396104
13	0xbf0b76be	-0.5447806
14	0xbe44e7ca	-0.19229046
15	0xbf136ce8	-0.5758805
16	0x3d92f2d9	0.07175226
17	0xbda3564c	-0.07975444
18	0xbcbafab9	-0.022824632
19	0x3cbd898d	0.023136878
20	0xbea0effe	-0.314331
21	0xbcf48820	-0.029850066
22	0xbe95fc7b	-0.2929419
23	0xbe647440	-0.22309971
24	0xbe2c641c	-0.16835064
25	0xbe73792e	-0.23776695
26	0xbbaab602	-0.0052096853
27	0xbea558b9	-0.32294253
28	0xbda98a91	-0.082783826
29	0xbe89a49b	-0.26883397
30	0x3d0672a4	0.032824174
31	0xbda122f5	-0.07867996
32	0xbe63ca0c	-0.22245044
33	0xbdbed4bc	-0.093179196
34	0x3cbf96f6	0.023387413
35	0xbcc7fcb5	-0.024412492
36	0xbe9de65a	-0.30839807
37	0xbdcdde05	-0.100521125
38	0xbbf167eb	-0.0073671243
39	0xbe6bc468	-0.23024142
40	0xbe1b4921	-0.15164615
41	0xbeb3916a	-0.3507188
42	0xbe167c92	-0.14695957
43	0xbea947a9	-0.33062485
44	0xbc453583	-0.012036684
45	0xbf05828e	-0.52152336
46	0xbe37ba42	-0.17942145
47	0xbd709bd9	-0.058742378
48	0xbebd3eb3	-0.36961898
49	0xbe73264d	-0.2374508
50	0xbf15ce52	-0.58517945
51	0xbf519c3f	-0.8187904
52	0x3c08bba5	0.008345519
53	0xbe8a4bef	-0.27011058
54	0xbd9e1d81	-0.07720471
55	0xbe28dd67	-0.16490708
56	0x3df64e9a	0.12026711
57	0xbe732482	-0.23744395
58	0xbe50df98	-0.20397794
59	0xbe77f300	-0.24213791
60	0xbe0b9c46	-0.13633832
61	0xbea2a5b3	-0.31767043
62	0xbec6bc37	-0.38815472
63	0xbe677523	-0.22603278
64	0x3cd76f20	0.026298106
65	0xbe523081	-0.20526315
66	0xbe83e548	-0.25760865
67	0x3e1270bd	0.14300819
68	0xbec4dfb5	-0.38451925
69	0xbe912d50	-0.28354883
70	0xbef32b2e	-0.4749388
71	0xbe8e5b38	-0.2780397
72	0xbc222f17	-0.009898922
73	0xbe8cc1b7	-0.27491543
74	0xbe48fc2c	-0.19627446
75	0xbd32fc92	-0.0436979
76	0xbeb6804d	-0.3564476
77	0x3d895070	0.06704795
78	0xbe4cd7d5	-0.20004208
79	0xbc18c840	-0.009325087
80	0xbe9543db	-0.29153332
81	0xbe765baa	-0.24058405
82	0xbe897ae9	-0.26851586
83	0xbe6bbfd8	-0.23022401
84	0xbe7024f6	-0.234516
85	0xbeeb0071	-0.45898774
86	0xbd24112b	-0.040055435
87	0xbe696932	-0.22794035
88	0xbe0b1f30	-0.13586116
89	0xbe2bb566	-0.16768417
90	0xbeb835a6	-0.3597843
91	0xbd57b3ab	-0.05266158
92	0x3dbb596f	0.091479175
93	0xbe8295a5	-0.25504795
94	0xbe2b9ac4	-0.16758257
95	0xbe48cd86	-0.19609651
96	0xbe930720	-0.28716373
97	0xbe4281af	-0.18994783
98	0xbd422cea	-0.047406115
99	0xbe5634ba	-0.20918551
100	0xbe1ceeb1	-0.15325429
101	0xbebe369a	-0.37151033
102	0xbef93ff2	-0.486816
103	0xbeab07f1	-0.33404496
104	0xbee5f5f8	-0.44914222
105	0xbece7e76	-0.40330857
106	0xbe9c36a0	-0.30510426
107	0xbecbfafe	-0.3983993
108	0xbdaf459a	-0.08558197
109	0xbeaa4da9	-0.33262375
110	0xbdc636cc	-0.096784204
111	0xbe3e4b00	-0.18583298
112	0xbd022dc1	-0.031781916
113	0x3ca5f670	0.020259112
114	0x3d31cf52	0.043410607
115	0xbe87261f	-0.26396272
116	0xbd382b94	-0.044963434
117	0xbd862cd3	-0.06551518
118	0xbe2c8f4b	-0.16851537
119	0xbe514e87	-0.20440112
120	0xbcec6460	-0.028856456
121	0xbe7207e5	-0.23635824
122	0xbe247949	-0.16061892
123	0xbc026478	-0.007958524
124	0xbe51b7c3	-0.20480256
125	0xbe79f56d	-0.24410029
126	0xbdd05ee4	-0.10174349
127	0xbf490065	-0.78516227
128	0xbeadbafd	-0.33931723
129	0xbe783c03	-0.24241643
130	0xbe1e9d7b	-0.15489762
131	0xbe6ddc96	-0.23228678
132	0x3b89b62c	0.004202625
133	0x3d610401	0.05493546
134	0xbe2fac37	-0.17155538
135	0xbe413567	-0.18868028
136	0xbe1d196c	-0.15341729
137	0xbe842949	-0.25812748
138	0xbd35405f	-0.044250842
139	0xbe66d560	-0.22542334
140	0xbe775a86	-0.24155626
141	0xbe8f86cc	-0.2803253
142	0xbe336722	-0.17519811
143	0xbe91247e	-0.28348154
144	0xbee03171	-0.4378772
145	0xbe991a7e	-0.29903024
146	0xbe971ac5	-0.2951261
147	0xbe7afddb	-0.245109
148	0xbe508bc3	-0.20365815
149	0xbd38e247	-0.04513767
150	0xbe85e5ff	-0.26152036
151	0xbe0e25c7	-0.13881598
152	0xbe94d93b	-0.29071984
153	0xbddcca41	-0.10780764
154	0xbe567abe	-0.2094526
155	0xbde58473	-0.11206903
156	0xbe592cc8	-0.21208489
157	0xbe30c0ac	-0.17260998
158	0xbd670e58	-0.056410164
159	0xbe721ea2	-0.23644498
160	0xbee3bf75	-0.44482008
161	0xbeaceb9a	-0.337735
162	0xbe17aece	-0.14812776
163	0xbe987b0e	-0.29781383
164	0xbe40ca42	-0.18827155
165	0xbe3a2296	-0.18177256
166	0x3cf39684	0.029734857
167	0xbe29fe6a	-0.16600958
168	0xbea983ed	-0.33108464
169	0xbd8e6ead	-0.069547035
170	0xbe278694	-0.16359931
171	0xbe8df610	-0.27726793
172	0xbdc18d61	-0.09450794
173	0xbccfc21c	-0.025361113
174	0xbe6174e6	-0.2201725
175	0xbf2e0f80	-0.679924
176	0xbd7122a4	-0.058870926
177	0xbdb4281c	-0.08796713
178	0xbcb9ad7d	-0.022665733
179	0xbe2aff42	-0.16698936
180	0xbe70f920	-0.23532534
181	0xbe6a9cac	-0.22911328
182	0xbe5bdcc1	-0.2147093
183	0xbe0fba00	-0.14035797
184	0x3d93e3e9	0.07221205
185	0xbe3d92ca	-0.18513027
186	0xbeb8a4fe	-0.3606338
187	0xbe6114e4	-0.21980625
188	0xbd9d3f0c	-0.07678041
189	0xbe4fa397	-0.20277248
190	0xbe7e495f	-0.24832676
191	0x3cb3343e	0.021875497
192	0xbe9a694d	-0.30158463
193	0xbe48e73a	-0.19619456
194	0xbb9c0276	-0.0047610356
195	0xbeac6ed7	-0.33678314
196	0xbe4c2795	-0.19936974
197	0xbe87fa78	-0.2655828
198	0xbecf548d	-0.40494195
199	0xbd8495f6	-0.06473915
200	0xbeaa190f	-0.33222243
201	0x3e2ccfa6	0.16876087
202	0xbd9cc168	-0.07654077
203	0xbeb1c692	-0.3472181
204	0xbe5cd963	-0.21567301
205	0xbe94b1aa	-0.29041797
206	0xbd5cdb07	-0.05391982
207	0xbf297631	-0.6619597
208	0xbb92dc67	-0.0044818404
209	0xbec476cb	-0.38371882
210	0xbd330b8e	-0.04371219
211	0x3e013c6d	0.12620707
212	0xbea5667d	-0.32304755
213	0xbde581a7	-0.1120637
214	0xbf3073bf	-0.68926615
215	0xbe91e2f2	-0.28493458
216	0xbc172222	-0.0092244465
217	0xbe3a8ebe	-0.18218514
218	0xbe464042	-0.1936045
219	0xbe39cdbc	-0.18144888
220	0xbe5c7406	-0.21528634
221	0xbd49c47c	-0.049259648
222	0xbe4af480	-0.19819832
223	0xbe0bb52c	-0.1364333
224	0xbe874d44	-0.26426136
225	0xbc71cdae	-0.0147585105
226	0xbe44eebf	-0.192317
227	0xbedc1fe7	-0.4299309
228	0xbf19add0	-0.6003084
229	0xbe854f01	-0.26036838
230	0xbee5e371	-0.44900087
231	0xbe916db0	-0.28403997
232	0x3dd09ab1	0.10185755
233	0xbe09cd59	-0.1345724
234	0xbe420ebc	-0.18950933
235	0xbe837d5c	-0.2568158
236	0xbe8b8bc8	-0.27255082
237	0xbbfa9b04	-0.007647874
238	0xbe95f534	-0.29288638
239	0xbd9f424c	-0.07776317
240	0xbe47d85f	-0.19516133
241	0x3ccc3048	0.024925366
242	0x3e22901b	0.15875284
243	0x3ceed656	0.029154938
244	0xbe40ff2d	-0.18847342
245	0xbea8a4ba	-0.32938176
246	0xbe893a70	-0.26802397
247	0xbe56da79	-0.20981778
248	0x3a302dc3	0.0006720686
249	0xbeb18e76	-0.34679002
250	0xbd1ae6e9	-0.03781787
251	0xbe9c543b	-0.30533013
252	0xbe03bbd1	-0.12864615
253	0xbe857f24	-0.26073563
254	0xbe5e3547	-0.21700011
255	0xbe4adcb0	-0.19810748

features.norm0.running_var f4 [256]
0	0x3dbbb957	0.0916621
1	0x3fb1ba9d	1.3885075
2	0x3ec7f058	0.39050555
3	0x3e1a68b0	0.15078998
4	0x3eb637d6	0.35589474
5	0x3ecc1a18	0.39863658
6	0x3fa66291	1.299883
7	0x3e2231e0	0.15839338
8	0x3d50130b	0.05079941
9	0x3e9ec1ea	0.3100732
10	0x3d988ab3	0.0744833
11	0x3f455448	0.7708173
12	0x40731448	3.7981129
13	0x3faf0c31	1.3675596
14	0x3e1f0d42	0.15532401
15	0x3fbd8df0	1.4808941
16	0x3db98909	0.090593405
17	0x3e0c26f3	0.13686733
18	0x3d448410	0.047977507
19	0x3d171d7a	0.036893345
20	0x3f46544b	0.7747237
21	0x3db0bc76	0.08629696
22	0x3f13595e	0.5755824
23	0x3f00e84d	0.5035446
24	0x3e525f8f	0.20544265
25	0x3ec1a155	0.378184
26	0x3e094153	0.13403825
27	0x3f802228	1.0010424
28	0x3e1d5ca9	0.15367378
29	0x3ec965c1	0.39335445
30	0x3d8062e0	0.06268859
31	0x3dc44c5a	0.095848754
32	0x3ec1557d	0.37760535
33	0x3e01ab9a	0.12663117
34	0x3d1074f4	0.035267785
35	0x3d9c4627	0.07630568
36	0x3f45247b	0.7700879
37	0x3de362fd	0.11102865
38	0x3d40355b	0.046925884
39	0x3eeb449c	0.45950782
40	0x3deb42d7	0.11487358
41	0x3fba7a48	1.4568567
42	0x3e20a875	0.15689261
43	0x3f37c210	0.7178049
44	0x3dc01ebb	0.09380861
45	0x400acdd9	2.168814
46	0x3e840994	0.25788558
47	0x3d8ef9a8	0.06981212
48	0x3ff72fd2	1.9311469
49	0x3eaae78e	0.33379787
50	0x404fa26f	3.2442892
51	0x40831cbf	4.097259
52	0x3df896bc	0.12138125
53	0x3f096495	0.536691
54	0x3e2b972b	0.16756885
55	0x3e1ad5f2	0.15120676
56	0x3e0642db	0.13111441
57	0x3ebcbc28	0.36862302
58	0x3e8db6d2	0.27678543
59	0x3f2631e3	0.6491987
60	0x3e096645	0.13417919
61	0x3f067ae2	0.52531254
62	0x3f5c0d2a	0.85957587
63	0x3ea7f246	0.32802027
64	0x3dac9b61	0.08428074
65	0x3eb4de25	0.35325733
66	0x3e7fa8c4	0.24966723
67	0x3e510b67	0.20414506
68	0x3f97c3f9	1.1856681
69	0x3f604e6a	0.8761965
70	0x400d17e2	2.2045827
71	0x3f40395a	0.7508751
72	0x3d624cd2	0.055249043
73	0x3ebb0291	0.36525396
74	0x3e8c46e0	0.27397823
75	0x3d5cebcd	0.053935815
76	0x3fa75d4b	1.3075346
77	0x3d510244	0.05102755
78	0x3f00b77a	0.50279963
79	0x3d44548a	0.047932185
80	0x3ee3f31c	0.44521415
81	0x3f25c6b7	0.6475634
82	0x3f18f0ad	0.5974224
83	0x3e695e8a	0.2278997
84	0x3e94f713	0.29094753
85	0x3fa21e33	1.2665466
86	0x3e4b04c3	0.19826035
87	0x3f292a40	0.66080093
88	0x3e0a1348	0.13483918
89	0x3f051938	0.51991606
90	0x3f38bb1f	0.72160524
91	0x3dd7849c	0.1052334
92	0x3dbf20bf	0.09332418
93	0x3eb4a8e4	0.35285103
94	0x3e788d30	0.24272609
95	0x3e1e64ae	0.15468094
96	0x3f5f877f	0.87316126
97	0x3f12dd2e	0.57368743
98	0x3e2c5593	0.16829519
99	0x3eed648a	0.46365768
100	0x3ed5c68c	0.41753042
101	0x3f9c5d75	1.2216021
102	0x40187bfc	2.3825674
103	0x3f61d5b7	0.8821673
104	0x3fb8f039	1.444831
105	0x3f189ed2	0.5961734
106	0x3f3072c1	0.689251
107	0x3fbdc22a	1.4824879
108	0x3dee28df	0.11628889
109	0x3f1e4a85	0.6183246
110	0x3db1de99	0.08685035
111	0x3ea36566	0.31913298
112	0x3e41f114	0.1893962
113	0x3dbc12b4	0.09183255
114	0x3df08455	0.1174399
115	0x3e9fa0b3	0.3117729
116	0x3d7e7200	0.062120438
117	0x3e4cbe7b	0.19994538
118	0x3e6be534	0.23036653
119	0x3e63c2f6	0.2224234
120	0x3e6738ff	0.22580336
121	0x3f046dc7	0.51730007
122	0x3e88dbb6	0.26730126
123	0x3d7de0c0	0.061981916
124	0x3ec01065	0.37512508
125	0x3f7fc415	0.9990857
126	0x3dd9ff36	0.10644381
127	0x40c06a65	6.0129876
128	0x3f915475	1.1353899
129	0x3f0534f0	0.520339
130	0x3ee6235a	0.44948846
131	0x3eb00807	0.34381124
132	0x3d97cf52	0.0741259
133	0x3d9aeb11	0.075643666
134	0x3e3a14e7	0.18172036
135	0x3e883905	0.26606002
136	0x3e457b85	0.192854
137	0x3ee4a1aa	0.4465459
138	0x3e15a2d2	0.14612892
139	0x3ea1b44c	0.31582868
140	0x3f5447ae	0.82921875
141	0x3f11c8f8	0.5694728
142	0x3e683356	0.22675833
143	0x3f538412	0.826234
144	0x3fd4f8b2	1.6638396
145	0x3f6d9cb0	0.9281721
146	0x3ef5297b	0.4788321
147	0x3f3e8a7c	0.7443006
148	0x3eb013e8	0.34390187
149	0x3d99e54a	0.075144365
150	0x3f000b0b	0.5001685
151	0x3e6e7162	0.2328544
152	0x3f3c2209	0.73489434
153	0x3dff80a6	0.124757096
154	0x3ed98848	0.42486787
155	0x3e03ee88	0.12883961
156	0x3edb4bf3	0.42831382
157	0x3e8aa388	0.2707789
158	0x3d8f2d0b	0.06991013
159	0x3ece50b7	0.40295956
160	0x40018f22	2.0243611
161	0x3f685bad	0.90764886
162	0x3ddc8e79	0.10769362
163	0x3f08fe7b	0.53513306
164	0x3e8d0ec7	0.27550337
165	0x3e6aadbf	0.22917841
166	0x3dec7e22	0.115474954
167	0x3e48648a	0.19569603
168	0x3f6780e2	0.90431035
169	0x3daf9e6c	0.085751384
170	0x3f0d63da	0.55230486
171	0x3f380aff	0.7189178
172	0x3df61714	0.120161206
173	0x3d8b49d0	0.06801188
174	0x3ef2f574	0.4745289
175	0x3fe264a9	1.7686969
176	0x3e85c5bf	0.2612743
177	0x3dd272dc	0.10275814
178	0x3d513e67	0.051084902
179	0x3e6bf869	0.2304398
180	0x3f01fc8a	0.5077597
181	0x3f3c676c	0.7359531
182	0x3f064ed1	0.52464014
183	0x3e064614	0.1311267
184	0x3e1cc571	0.15309693
185	0x3ec7e9da	0.39045602
186	0x3f51de4c	0.81979823
187	0x3e914531	0.283731
188	0x3d98e396	0.074652836
189	0x3e41334e	0.18867227
190	0x3e9fc342	0.31203657
191	0x3d51266c	0.051062033
192	0x3eadd7bc	0.33953655
193	0x3e4568a9	0.19278206
194	0x3cee73d8	0.029107973
195	0x3f29e37f	0.66362756
196	0x3e8f236f	0.2795672
197	0x3f29aef3	0.66282576
198	0x3fe13498	1.7594175
199	0x3da011c7	0.07815891
200	0x3f8ffccb	1.1249021
201	0x3e8f9526	0.2804348
202	0x3e289fe9	0.16467251
203	0x3fa719ef	1.3054789
204	0x3eb5f45c	0.35537994
205	0x3f33eaf7	0.702804
206	0x3d896b2f	0.06709897
207	0x401699ac	2.3531294
208	0x3dc339fa	0.095325425
209	0x3fa7aa57	1.3098859
210	0x3d585063	0.052811038
211	0x3e048aac	0.12943524
212	0x3fac9e95	1.3485895
213	0x3e8ac22e	0.27101272
214	0x40b0b63b	5.522245
215	0x3f0711ac	0.5276134
216	0x3d9980ec	0.07495293
217	0x3e744775	0.23855384
218	0x3e5902e1	0.21192504
219	0x3e817eff	0.25292203
220	0x3eae10a1	0.33997062
221	0x3d68ebda	0.05686555
222	0x3ebe015b	0.3711041
223	0x3e8b5693	0.27214488
224	0x3f104b91	0.56365305
225	0x3d9cb3db	0.07651492
226	0x3f0562cb	0.5210387
227	0x3fea97d3	1.8327583
228	0x3f8f735e	1.1207082
229	0x3edb95fa	0.4288786
230	0x3f9082bc	1.1289897
231	0x3f1e689f	0.6187839
232	0x3e27d727	0.16390668
233	0x3e17db4d	0.1482975
234	0x3e8b0ea4	0.27159607
235	0x3ee8ae1e	0.4544534
236	0x3eeb17eb	0.45916685
237	0x3e076085	0.13220413
238	0x3f27dfdf	0.65575975
239	0x3e1a2665	0.15053709
240	0x3e587782	0.21139339
241	0x3d28ad87	0.041181114
242	0x3e6a6fc6	0.228942
243	0x3d853a1b	0.06505223
244	0x3e6131c9	0.21991648
245	0x3ef5e464	0.4802581
246	0x3ecc1b99	0.39864805
247	0x3e71a32b	0.235974
248	0x3e4eecab	0.20207469
249	0x3edf7ac3	0.43648347
250	0x3d9b1f00	0.07574272
251	0x3f520709	0.82041985
252	0x3dfa20ab	0.12213262
253	0x3f2aaef9	0.6667324
254	0x3efe2ab3	0.49641952
255	0x3e9ccb6b	0.30623946

features.denseblock1.denselayer1.norm1.weight f4 [256]
0	0x3f5943b9	0.8486896
1	0x3fb1569d	1.3854557
2	0x3f8c48b3	1.0959686
3	0x3f8a6a46	1.0813682
4	0x3f76784a	0.96277297
5	0x3eb28bc1	0.3487225
6	0x3fec7dc0	1.8475876
7	0x3f7786ca	0.96690047
8	0x3f2a4e9f	0.66526216
9	0x3f1502d0	0.58207417
10	0x3f80e6b5	1.0070406
11	0x3fbd1226	1.4771163
12	0x3ef57c7e	0.47946543
13	0x3e306b85	0.17228515
14	0x3f8573e2	1.042599
15	0x401c0caf	2.4382741
16	0x3f29f12a	0.6638361
17	0x3f76aa6b	0.9635379
18	0x3f426d8e	0.7594842
19	0x3f354c8e	0.7081994
20	0x3fa1a5fd	1.2628781
21	0x3f04f4ff	0.51936334
22	0x3f8c6765	1.0969054
23	0x3f813be0	1.0096397
24	0x3f6f71d0	0.9353304
25	0x3f7de5b1	0.99178606
26	0x3fae041a	1.3595002
27	0x3fa28810	1.2697773
28	0x3f346e30	0.7048063
29	0x3fbd17f1	1.4772931
30	0x3f96fbc0	1.1795578
31	0x3ef5fbbf	0.4804363
32	0x3f4f2955	0.8092244
33	0x3edc71b7	0.43055508
34	0x3f4c1eac	0.797343
35	0x3f2a9906	0.66639745
36	0x3f811241	1.0083696
37	0x3f6d72ad	0.92753106
38	0x3f8b0c7f	1.0863189
39	0x3f71607f	0.94287866
40	0x3f6eaf08	0.93235826
41	0x3fa04988	1.252244
42	0x3faf9664	1.371777
43	0x3fb448fe	1.4084775
44	0x3f03d9be	0.51504123
45	0x3fd73a66	1.6814697
46	0x3f559bb9	0.8344074
47	0x3f78b995	0.97158176
48	0x3f2d35a0	0.6765995
49	0x3f88a951	1.0676671
50	0x3fe68633	1.8009704
51	0x3fb4b26a	1.4116948
52	0x3f400593	0.75008506
53	0x3f4ede75	0.8080819
54	0x3f78f8e0	0.97254753
55	0x3f8f9795	1.1218134
56	0x3f1d5182	0.61452496
57	0x3f89574c	1.0729766
58	0x3eb0f598	0.34562373
59	0x3f8af646	1.0856407
60	0x3f683971	0.9071265
61	0x3fbd861a	1.480655
62	0x3f879641	1.0592729
63	0x3f87b284	1.0601354
64	0x3f804bf2	1.0023177
65	0x3fac1fba	1.3447182
66	0x3fa50d4e	1.2894685
67	0x3f462586	0.77401006
68	0x3fd3ae80	1.6537628
69	0x3fa7369a	1.3063538
70	0x3f30fbd5	0.69134265
71	0x3f945c56	1.1590679
72	0x3f5cfcae	0.8632306
73	0x3f91c1b8	1.1387243
74	0x3f856340	1.0420914
75	0x3f3c3194	0.7351315
76	0x3fb17e29	1.3866626
77	0x3efe9093	0.49719676
78	0x3f8beb20	1.093113
79	0x3f586aef	0.8453817
80	0x3f9d7673	1.2301773
81	0x3f5c436b	0.8604037
82	0x3f8e0a31	1.109686
83	0x3f9eacc3	1.2396473
84	0x3fa39b82	1.2781832
85	0x3fc95aef	1.5730876
86	0x3f54d7b0	0.83141613
87	0x3e94d772	0.29070622
88	0x3f8cb9ac	1.0994163
89	0x3f3aab3f	0.7291755
90	0x3fccd4ad	1.6002403
91	0x3f55bcda	0.8349129
92	0x3f31f7ae	0.69518554
93	0x3f82db91	1.0223256
94	0x3f99fb3b	1.2029794
95	0x3f7cdbf1	0.98773104
96	0x3fabf525	1.3434187
97	0x3f77cf8b	0.9680106
98	0x3f36cd58	0.7140708
99	0x3f747ad5	0.95499927
100	0x3f42862d	0.75985986
101	0x3f8dd97a	1.1081994
102	0x3fe9ee6d	1.8275887
103	0x3fb0a276	1.3799579
104	0x3f0eb1ab	0.5573985
105	0x3fb4efdc	1.4135699
106	0x3fa40917	1.2815274
107	0x3fb6633c	1.4249034
108	0x3f825d06	1.0184639
109	0x3f926ae4	1.143887
110	0x3f3151b3	0.6926529
111	0x3fa3e459	1.2804061
112	0x3f82d745	1.0221945
113	0x3f771816	0.9652113
114	0x3faebc81	1.3651277
115	0x3f9e7b2f	1.2381343
116	0x3f19edb9	0.6012836
117	0x3f591ea3	0.8481237
118	0x3f77d427	0.96808094
119	0x3fa98409	1.3243419
120	0x3f9713c5	1.1802908
121	0x3f5dbb06	0.866135
122	0x3f93f160	1.1558037
123	0x3f43229c	0.76224685
124	0x3f918462	1.1368525
125	0x3f97c2e7	1.1856354
126	0x3f75a630	0.95956707
127	0x3fa49181	1.2856904
128	0x3f3e422d	0.74319726
129	0x3f82110b	1.0161451
130	0x3f368813	0.7130138
131	0x3f9a8950	1.2073154
132	0x3f092be7	0.53582615
133	0x3f24b8cf	0.64344496
134	0x3f9d0b72	1.2269118
135	0x3f863e59	1.0487777
136	0x3f99c842	1.2014239
137	0x3f867cfd	1.0506893
138	0x3e860e77	0.2618291
139	0x3f85dbe3	1.0457729
140	0x3f9f8bba	1.2464516
141	0x3fa2b7b5	1.2712313
142	0x3f87d32c	1.061132
143	0x3f86b110	1.0522785
144	0x3fe36bef	1.7767314
145	0x3f86f743	1.0544208
146	0x3f6f845b	0.93561333
147	0x3f9da548	1.2316065
148	0x3f7a70e3	0.978285
149	0x3f548207	0.83010906
150	0x3f97a770	1.1847973
151	0x3f6c40c9	0.92286354
152	0x3fccbf67	1.5995911
153	0x3f1fbec8	0.62400484
154	0x3f8fb6df	1.1227683
155	0x3f564ab9	0.8370777
156	0x3f8daa69	1.106763
157	0x3f6bce1d	0.9211138
158	0x3f1aaa60	0.6041622
159	0x3f7b5224	0.9817221
160	0x3f9d43da	1.2286332
161	0x3fa97886	1.3239906
162	0x3f89962f	1.0748957
163	0x3fb68cf8	1.426177
164	0x3f89e59e	1.0773199
165	0x3f3832b3	0.7195236
166	0x3f1ee578	0.6206889
167	0x3f611f0b	0.8793799
168	0x3f9d44dc	1.2286639
169	0x3f5a99ae	0.85390747
170	0x3f7f47b8	0.9971881
171	0x3f836f44	1.026833
172	0x3f5d91ad	0.8655041
173	0x3f515ea7	0.81785053
174	0x3f90e41e	1.1319616
175	0x3fb51d42	1.4149554
176	0x3f9a0e3d	1.2035595
177	0x3f9cd59f	1.2252692
178	0x3f5c65b5	0.8609269
179	0x3f8d5965	1.1042906
180	0x3f976162	1.1826594
181	0x3f7b1da9	0.9809213
182	0x3f9d1580	1.2272186
183	0x3f58e973	0.84731215
184	0x3f3ecb49	0.7452894
185	0x3f6dab56	0.9283956
186	0x3fdba4b3	1.7159637
187	0x3fa1ca5b	1.2639879
188	0x3f6765f3	0.9038994
189	0x3fa1ed0e	1.2650468
190	0x3f88feda	1.0702775
191	0x3f124500	0.57136536
192	0x3fbd3c06	1.4783943
193	0x3fc836a7	1.5641679
194	0x3f26c0dd	0.65138036
195	0x3fa99cda	1.3250992
196	0x3fa92077	1.3213032
197	0x3f616e22	0.88058674
198	0x3fcaf46f	1.5855845
199	0x3f60c8a1	0.87806135
200	0x3f787f70	0.97069454
201	0x3f246ba4	0.64226747
202	0x3f809d58	1.0048018
203	0x3f606ef1	0.87669283
204	0x3eea1448	0.45718598
205	0x3f953988	1.1658182
206	0x3f41aeff	0.7565765
207	0x3f7a41c6	0.9775661
208	0x3f0ecdbc	0.55782676
209	0x3f94d514	1.1627526
210	0x3fabeb02	1.3431094
211	0x3f9d3833	1.2282776
212	0x3ff17484	1.8863683
213	0x3ea47124	0.3211757
214	0x3fb8ffad	1.4453026
215	0x3f9af716	1.2106655
216	0x3f1edfef	0.62060446
217	0x3f8fefaf	1.1245021
218	0x3f9cc1a0	1.224659
219	0x3f8b2d0b	1.0873121
220	0x3f771586	0.9651722
221	0x3f45f0a5	0.7732032
222	0x3f742bb8	0.9537921
223	0x3f9afa7b	1.210769
224	0x3f6a22ac	0.91459155
225	0x3f8ac5d3	1.0841621
226	0x3f9d2fa5	1.2280165
227	0x3fc025d8	1.5011549
228	0x404cc7c9	3.199694
229	0x3facc413	1.3497337
230	0x3f8fe894	1.1242852
231	0x3f95d0f4	1.1704392
232	0x3f3ac65a	0.7295891
233	0x3f5b2d25	0.8561576
234	0x3f639076	0.88892305
235	0x3f86dc3e	1.0535963
236	0x3fb263d3	1.3936714
237	0x3f8c0090	1.0937672
238	0x3f8f7a1c	1.120914
239	0x3fa2e2e1	1.2725488
240	0x3fae3d21	1.3612405
241	0x3f540018	0.82812643
242	0x3f192694	0.5982449
243	0x3f45eba2	0.7731267
244	0x3f7f7acd	0.99796754
245	0x3fa99b11	1.3250448
246	0x3f85cc49	1.0452968
247	0x3f9f72e1	1.2456933
248	0x3f97b9e4	1.1853604
249	0x3f923e6e	1.1425302
250	0x3f40fbe9	0.75384384
251	0x3fd2ac84	1.6458898
252	0x3f34508d	0.7043541
253	0x3fae610b	1.3623365
254	0x3f9e9f75	1.2392412
255	0x3fa3a8e6	1.2785919

features.denseblock1.denselayer1.norm1.bias f4 [256]
0	0xbe7a563d	-0.2444696
1	0x3d292548	0.04129532
2	0xbd0c8a9d	-0.03431188
3	0xbdb5cb26	-0.08876638
4	0xbde9328a	-0.11386593
5	0xbc078928	-0.008272447
6	0x3efa8fc8	0.4893782
7	0xbe12901f	-0.1431279
8	0xbe09a0ab	-0.13440196
9	0x3d0a6129	0.033784065
10	0xbe378fac	-0.179259
11	0xbc944f45	-0.018104205
12	0x3c182c49	0.009287902
13	0xbdb4f586	-0.088358924
14	0x3db12986	0.08650498
15	0xbfcf5f13	-1.6200889
16	0xbe2a97af	-0.16659425
17	0xbd87b2a6	-0.06625871
18	0xbdf0d43d	-0.11759231
19	0xbe7a318b	-0.24432962
20	0xbe3ba36a	-0.18324056
21	0xbde138f9	-0.10997195
22	0xbdcdf9d3	-0.10057416
23	0x3b99a545	0.004688891
24	0xbd0f2492	-0.034946986
25	0x3e17ed8a	0.14836708
26	0xbe39e0ca	-0.18152156
27	0x3e1f803b	0.1557626
28	0xbd38cd51	-0.04511768
29	0x3e4321ce	0.19055864
30	0xbe9b6917	-0.30353615
31	0xbe18a651	-0.14907195
32	0x3e92bfa9	0.2866185
33	0xbceb33ec	-0.028711282
34	0xbe99da27	-0.3004925
35	0xbd9edeeb	-0.07757362
36	0x3a90cfa8	0.0011048215
37	0xbe62f16b	-0.22162406
38	0xbe8551fe	-0.26039118
39	0x3ea4866e	0.32133812
40	0xbe3490d8	-0.17633379
41	0xbe16e6f6	-0.14736542
42	0xbec11516	-0.377114
43	0xbeadd79c	-0.3395356
44	0xbd62ef7f	-0.055404183
45	0x3f5fe749	0.8746229
46	0xbc6de2d2	-0.01451941
47	0xbe470523	-0.19435553
48	0xbd94f4b7	-0.07273238
49	0x3e1d1fd5	0.15344174
50	0xbf13ebcf	-0.5778169
51	0xbf2ed1bb	-0.68288773
52	0xbe1cf866	-0.15329131
53	0xbdecfeda	-0.115720466
54	0xbc9aaecd	-0.01888218
55	0x3ea330ae	0.31873077
56	0xbdbabd6e	-0.09118162
57	0xbde02382	-0.109442726
58	0xbd4d6c22	-0.05015195
59	0x3e5941c8	0.212165
60	0x3d529a1a	0.051416494
61	0xbf243480	-0.6414261
62	0x3b55b77c	0.0032610586
63	0x3dab1cfa	0.08355136
64	0xbe9ffcfb	-0.31247696
65	0x3ba661ac	0.0050775614
66	0x3d4bb007	0.04972842
67	0xbe8098ab	-0.25116476
68	0x3e2ac822	0.16677907
69	0xbf0d3dad	-0.55172235
70	0x3e44d79d	0.19222875
71	0x3e4c3ff5	0.19946273
72	0xbdd94c8c	-0.10610303
73	0xbca01c95	-0.019544879
74	0xbd9c547b	-0.07633301
75	0xbc6fcedf	-0.014636724
76	0x3d6bb571	0.057546083
77	0xbeb55758	-0.354182
78	0x3bbf1daa	0.0058323937
79	0xbe7561c3	-0.23963074
80	0xbd897688	-0.06712061
81	0x3e60b46d	0.21943827
82	0xbebc724c	-0.36805952
83	0x3ea7b51e	0.3275537
84	0x3e2718b9	0.16318025
85	0x3e23559f	0.1595063
86	0xbdc430fb	-0.09579655
87	0xbd49459e	-0.049138658
88	0xbec08a83	-0.37605676
89	0xbe6eff55	-0.23339589
90	0xbe62bc3f	-0.22142123
91	0xbe09cb30	-0.13456416
92	0xbe3a658b	-0.18202798
93	0x3c7a7a4a	0.015287945
94	0xbe261aba	-0.16221133
95	0x3e8a13de	0.26968282
96	0x3e8c5606	0.2740938
97	0xbe5ed0bd	-0.21759315
98	0xbe8e3716	-0.27776402
99	0x3e6c2aa0	0.23063135
100	0xbd62ae3c	-0.055341944
101	0xbdaa6dc4	-0.083217174
102	0x3f155877	0.5833811
103	0x3e0b8317	0.13624226
104	0xbb918916	-0.0044413907
105	0xbf1ce8e5	-0.6129287
106	0x3e475d4a	0.1946918
107	0x3ec67e6a	0.3876832
108	0xbe729d00	-0.23692703
109	0x3e845faf	0.2585425
110	0xbd4d4944	-0.0501187
111	0xbc900698	-0.01758127
112	0xbdb2f504	-0.08738139
113	0xbe794219	-0.2434162
114	0xbe9fb809	-0.31195095
115	0xbe8e8dc4	-0.27842534
116	0xbe81b15c	-0.25330627
117	0xbc8723af	-0.016496507
118	0x3af90c62	0.0019000883
119	0xbec92bc0	-0.3929119
120	0x3eb85995	0.36005846
121	0xbe20e1ca	-0.15711132
122	0x3e17591b	0.14780085
123	0xbbc7f7ae	-0.0061025238
124	0xbe47b4da	-0.19502583
125	0xbe047d7f	-0.12938498
126	0xbe4ec436	-0.20192036
127	0xbee12e87	-0.4398081
128	0x3d0bd90a	0.03414253
129	0x3e6cd409	0.2312776
130	0xbe82e962	-0.25568682
131	0xbe5a2ead	-0.21306868
132	0xbe53330e	-0.20624945
133	0xbe238ee3	-0.15972476
134	0x3e0e9da0	0.13927317
135	0x3ed06371	0.40700868
136	0xbf11ac27	-0.5690331
137	0x3d7035dc	0.058645114
138	0xbe4ab691	-0.19796206
139	0x3d243770	0.04009193
140	0xbf2f6849	-0.685185
141	0x3c2c8077	0.010528675
142	0x3e3cd494	0.18440467
143	0x3e905a5f	0.28193948
144	0xbe0b9ea5	-0.13634737
145	0xbdd6dd46	-0.10491423
146	0xbe62869e	-0.22121665
147	0xbc121d70	-0.008918151
148	0x3e46d2c4	0.19416338
149	0xbd338fb6	-0.043838225
150	0xbe194fed	-0.14971896
151	0xbd3d2de0	-0.046186328
152	0x3e9ce407	0.3064272
153	0x3db5e05a	0.08880682
154	0x3eb4d8bf	0.35321614
155	0x3dfc71e2	0.12326409
156	0xbdd44be4	-0.103660375
157	0x3dd7381b	0.10508748
158	0x3e2b892e	0.16751549
159	0x3e87a0b8	0.26489806
160	0xbe797696	-0.24361643
161	0x3dc9eab2	0.09859218
162	0xbeb2f95f	-0.3495588
163	0x3e87566e	0.26433128
164	0x3e6f9347	0.23396026
165	0x3eb64221	0.35597327
166	0xbe392b37	-0.18082891
167	0xbeb5bc29	-0.35495117
168	0xbdcb1832	-0.09916724
169	0xbe58a95c	-0.21158355
170	0x3dc4195c	0.095751494
171	0xbd82c703	-0.06385615
172	0xbe08abd9	-0.13346805
173	0xbdf20750	-0.11817801
174	0xbd817c50	-0.06322539
175	0xbeced758	-0.4039867
176	0xbcccf403	-0.025018698
177	0x3ce21500	0.027597904
178	0xbdc3bfbb	-0.09558054
179	0xbe0d69de	-0.13809916
180	0x3ed840bf	0.42236897
181	0xbe436bc9	-0.19084086
182	0xbf4c058c	-0.79695964
183	0xbe330290	-0.17481446
184	0xbe13f152	-0.14447525
185	0x3e643617	0.22286259
186	0x3e206b6e	0.15665981
187	0x3d8455f3	0.06461706
188	0xbde3cca9	-0.1112302
189	0xbf113e70	-0.567359
190	0x3e087823	0.13327079
191	0xbdebfb4f	-0.11522543
192	0xbf6255c0	-0.88412094
193	0xbeab2c2e	-0.33432144
194	0xbe27f9eb	-0.1640393
195	0x3de1fd84	0.110346824
196	0x3dc175b3	0.094462775
197	0xbc0a3082	-0.008434417
198	0x3e90a2aa	0.28249103
199	0xbdfe4042	-0.124146
200	0x3ab6aa3d	0.0013936233
201	0xbe55b812	-0.20870999
202	0x3e9c3b72	0.30514103
203	0xbdf3be4e	-0.11901532
204	0x3e897cce	0.2685303
205	0x3e826e3c	0.25474727
206	0xbeb8219f	-0.3596315
207	0xbc14c200	-0.009079456
208	0xbdc91c81	-0.0981989
209	0xbcada9ad	-0.021199072
210	0xbeafdb18	-0.34346843
211	0xbea53b87	-0.32271978
212	0xbf0d4156	-0.5517782
213	0xbd085a78	-0.033289403
214	0xbe6424a1	-0.22279598
215	0xbd0b61c1	-0.034028772
216	0x3d228c13	0.039684366
217	0xbe881163	-0.26575765
218	0x3d3cd2eb	0.046099585
219	0xbe58c24a	-0.21167865
220	0xbdedde93	-0.11614718
221	0xbe65a271	-0.22425248
222	0x3e01a55e	0.12660739
223	0x3dbe236a	0.092840984
224	0xbe257bf8	-0.16160572
225	0xbdced9d1	-0.10100139
226	0xbed629f2	-0.41828877
227	0xbe80c5df	-0.25150964
228	0xbf37ff6e	-0.7187413
229	0x3ef2a23e	0.47389406
230	0xbd81827b	-0.06323715
231	0xbde24975	-0.11049167
232	0xbe38f044	-0.18060404
233	0xbe192fe6	-0.14959678
234	0xbe1dbffb	-0.15405266
235	0x3e1d367a	0.15352812
236	0x3de50fc0	0.11184645
237	0xbe75a1d8	-0.2398752
238	0x3d4aec78	0.04954192
239	0xbe1519b0	-0.1456058
240	0x3dfc5a8a	0.123219565
241	0xbe1058a3	-0.14096312
242	0xbe622e80	-0.22088051
243	0xbe6e4231	-0.23267438
244	0x3d8fd844	0.07023671
245	0xbd7f306f	-0.06230205
246	0xbe4e210c	-0.20129794
247	0x3e7f0118	0.24902761
248	0xbdc5535b	-0.096350394
249	0xbf0b4aac	-0.54410815
250	0xbebc2128	-0.36744046
251	0x3f2122b2	0.62943566
252	0xbe847e84	-0.25877774
253	0x3e6bcfd0	0.23028493
254	0x3e846c2e	0.25863785
255	0x3e56a04b	0.20959584
